src/model_fold_1.pth (torch, 231376 bytes, 46 tensors)

conv_in.weight f4 [32, 1, 5]
0	0xbea90303	-0.3301011
1	0x3e8c58f1	0.27411607
2	0xbed2a6cd	-0.41142884
3	0xbd791a9b	-0.06081639
4	0xbdf79e44	-0.12090734
5	0x3eb67db6	0.35642785
6	0x3e604ac5	0.21903522
7	0x3eb6bff7	0.35693333
8	0xbe9aa3f1	-0.30203202
9	0x3dcde3ba	0.10053201
10	0x3dc0d113	0.09414878
11	0xbebb5123	-0.3658534
12	0x3eb89c51	0.3605676
13	0x3e8c328f	0.27382323
14	0xbd112dfa	-0.035444237
15	0x3e220c87	0.15825091
16	0xbeaab602	-0.33341986
17	0xbdbd8bdc	-0.09255192
18	0xbd4a4670	-0.04938358
19	0xbe350db2	-0.17681006
20	0x3e968bee	0.29403633
21	0xbed94e94	-0.42442763
22	0x3dddf791	0.10838235
23	0x3e8c3166	0.27381438
24	0x3e16fbe4	0.14744526
25	0xbd10a7b5	-0.035316188
26	0xbebf34d5	-0.37344995
27	0x3e9bf703	0.30461892
28	0x3a46a980	0.0007578358
29	0xbe4ced9a	-0.20012513
30	0x3ea78224	0.32716477
31	0xbeb408ba	-0.35162908
32	0x3ecd95fb	0.4015349
33	0xbd96892a	-0.07350381
34	0xbeac0eb0	-0.33604956
35	0xbe4af0d6	-0.19818434
36	0x3d3c2d1e	0.045941465
37	0xbea405af	-0.32035586
38	0x3e446eb5	0.19182856
39	0xbe8f5101	-0.2799149
40	0x3e2d0f2c	0.16900319
41	0x3e04aba0	0.12956095
42	0x3db7136e	0.08939253
43	0x3e6e1a45	0.23252209
44	0x3db887a3	0.09010246
45	0x3dcb7d40	0.09935999
46	0xbd86748c	-0.06565198
47	0x3ec21f11	0.37914327
48	0xbee2fe9d	-0.4433488
49	0xbeafdc5b	-0.34347805
50	0xbe8b3fcf	-0.2719712
51	0x3e40a39a	0.18812409
52	0x3d2e4255	0.042543728
53	0xbeb7fcb7	-0.35934994
54	0x3ec73346	0.38906306
55	0x3ec5f3c7	0.3866255
56	0x3e9e819e	0.30958265
57	0xbe9d5532	-0.3072906
58	0xbe8d8234	-0.276384
59	0x3b6941e0	0.0035592243
60	0x3dd1b888	0.10240275
61	0x3ea49110	0.32141924
62	0x3cd7864c	0.026309155
63	0xbeacb176	-0.33729142
64	0xbe1f382c	-0.15548772
65	0xbd1e2b60	-0.038615584
66	0x3dd1411c	0.10217497
67	0x3ec0d36b	0.376613
68	0xbeac5041	-0.3365498
69	0x3e43a2d4	0.19105083
70	0x3bca4775	0.006173069
71	0x3e8a3ef6	0.2700116
72	0xbc159f91	-0.009132282
73	0x3ee2cf2a	0.4429868
74	0x3e9797e4	0.2960807
75	0xbcb82525	-0.02247865
76	0x3e0ad541	0.13557912
77	0x3e8b07b6	0.2715432
78	0xbd658727	-0.056037094
79	0x3ebdb9d1	0.3705583
80	0xbe682b75	-0.22672828
81	0xbea8783b	-0.3290423
82	0xbd04be7b	-0.03240822
83	0xbec99570	-0.39371824
84	0xbdc6a84b	-0.09700068
85	0x3df8ec2c	0.12154421
86	0xbde1eade	-0.110311255
87	0x3e252389	0.16126837
88	0xbed35427	-0.4127514
89	0xbe44d28c	-0.19220942
90	0xbe696e2a	-0.2279593
91	0x3cd503c6	0.026002776
92	0x3d2e2f76	0.04252573
93	0x3d83c6a0	0.06434369
94	0x3d8a06f7	0.0673961
95	0xbec18987	-0.37800238
96	0xbeb8d1bb	-0.36097512
97	0x3ed0ef83	0.40807733
98	0x3e58b580	0.21162987
99	0x3de0ccd2	0.109765664
100	0x3ed127fa	0.40850812
101	0x3ebfa6df	0.37432
102	0x3ea50498	0.32230067
103	0xbdc7a504	-0.09748271
104	0x3d4413b1	0.04787034
105	0x3e81a064	0.2531768
106	0x3d8c38e6	0.0684679
107	0x3e48c6b2	0.19607046
108	0xbe303e0f	-0.17211173
109	0x3ebf175f	0.37322518
110	0x3ed0aa4d	0.4075493
111	0xbddc4bbc	-0.10756633
112	0xbe58db21	-0.21177341
113	0x3ea131bd	0.3148326
114	0x3eeac57a	0.45853788
115	0xbe72f130	-0.23724818
116	0x3e770a40	0.24125004
117	0x3eceba26	0.40376395
118	0x3e02343e	0.12715241
119	0x3e8c6cd4	0.2742678
120	0x3e884e92	0.26622444
121	0x3dfd0dee	0.123561725
122	0xbedd120a	-0.43177825
123	0xbea7f1ba	-0.3280161
124	0x3edde605	0.43339553
125	0x3ec72b94	0.38900435
126	0x3e32b35c	0.17451233
127	0xbe7a61dd	-0.24451394
128	0xbe82b1f0	-0.2552638
129	0xbe92a508	-0.28641534
130	0x3e86699f	0.26252457
131	0xbe09132e	-0.13386223
132	0xbe548e96	-0.20757517
133	0xbd617e56	-0.055052124
134	0x3ea2284a	0.31671363
135	0xbea5ccf1	-0.3238292
136	0xbeb23846	-0.34808558
137	0x3dd29bbf	0.102836125
138	0x3da9731e	0.0827391
139	0xbe9dc6a7	-0.30815622
140	0xbea14f9c	-0.3150605
141	0x3ea61640	0.3243885
142	0xbe7e30b8	-0.24823272
143	0xbe8d5061	-0.27600387
144	0xbecd3855	-0.4008204
145	0x3d2a35ea	0.041555323
146	0xbe6de3de	-0.23231456
147	0x3ebaba15	0.36470094
148	0xbe80b332	-0.25136715
149	0x3e6aef18	0.2294277
150	0xbe043a1f	-0.12912796
151	0x3c1a6de4	0.009425614
152	0xbd05004d	-0.03247099
153	0x3e754d47	0.2395526
154	0x3ecd3cbb	0.40085396
155	0x3d98a43b	0.074531995
156	0xbda7b720	-0.08189225
157	0x3ebd7549	0.37003544
158	0xbe0e0ea2	-0.1387277
159	0x3d28d209	0.04121593

conv_in.bias f4 [32]
0	0xbe476bf2	-0.19474772
1	0xbea68ed3	-0.3253084
2	0x3d8faf28	0.0701583
3	0x3e4e9594	0.20174247
4	0xbd89d7d6	-0.067306206
5	0xbd466757	-0.048438396
6	0x3eac42cc	0.33644712
7	0x3e801877	0.25018665
8	0xbe66c21f	-0.22534989
9	0x3ecee2fb	0.40407547
10	0x3e181ffe	0.14855954
11	0x3e5468cd	0.20743103
12	0x3e8aa92b	0.2708219
13	0xbe369fe7	-0.17834435
14	0xbe9a315d	-0.30115786
15	0x3e8510e5	0.25989452
16	0xbe30609a	-0.1722435
17	0x3d4e2b8f	0.05033451
18	0x3d924003	0.071411155
19	0xbe6648a8	-0.22488654
20	0x3e96fe88	0.29491067
21	0xbded531a	-0.11588116
22	0x3eafe619	0.34355238
23	0xbedae000	-0.42749023
24	0x3e33cac9	0.17557825
25	0xbee6bb42	-0.4506474
26	0xbe925758	-0.28582263
27	0xbe38ffdf	-0.18066357
28	0xbdb20457	-0.08692234
29	0x3e98d63c	0.29850948
30	0xbe8b32cc	-0.27187192
31	0x3e1c32c5	0.15253742

A_blocks.0.intro_bn.weight f4 [32]
0	0x3f803130	1.0015011
1	0x3f7dbf74	0.9912026
2	0x3f7fd52b	0.99934644
3	0x3f7ba345	0.98296005
4	0x3f7a7ef2	0.97849953
5	0x3f7e5d2c	0.9936092
6	0x3f86594b	1.0496
7	0x3f76d7fc	0.96423316
8	0x3f7ec9f9	0.99526936
9	0x3f79cd83	0.9757921
10	0x3f89ba5d	1.0759999
11	0x3f8084c3	1.0040516
12	0x3f7e58e9	0.99354416
13	0x3f7e0645	0.99228317
14	0x3f799a73	0.97501296
15	0x3f7a75fc	0.9783628
16	0x3f80cee2	1.0063136
17	0x3f7c8689	0.98642784
18	0x3f8343fe	1.0255125
19	0x3f800ce3	1.0003933
20	0x3f7dc313	0.99125785
21	0x3f7995bb	0.97494096
22	0x3f7e9672	0.9944831
23	0x3f7e737b	0.9939496
24	0x3f83a2b2	1.0284026
25	0x3f7dfcb2	0.9921371
26	0x3f827d97	1.0194577
27	0x3f80cf9f	1.0063361
28	0x3f7ee620	0.9956989
29	0x3f803147	1.0015038
30	0x3f7a8b1b	0.9786851
31	0x3f74b0f7	0.95582527

A_blocks.0.intro_bn.bias f4 [32]
0	0x3d3c58c3	0.045983087
1	0xbcfe07a4	-0.031009503
2	0xbc867fef	-0.016418425
3	0x3c99efdf	0.018791137
4	0x3ced2fa1	0.028953375
5	0x3cee581e	0.029094752
6	0xbc77465c	-0.015092459
7	0x3cc1ec45	0.023672232
8	0x3c845ae2	0.016156618
9	0x3cd87aab	0.02642568
10	0x3d05b99b	0.03264771
11	0xbc9549f6	-0.018223744
12	0x3b304439	0.0026896133
13	0xbb969ab4	-0.004596079
14	0xbbbfb65f	-0.0058505978
15	0x3c1ed17f	0.009693502
16	0xbc06bdae	-0.008223934
17	0x3cdef73a	0.027217496
18	0x3be67f84	0.007034244
19	0xbba795bd	-0.0051142857
20	0xbd383b20	-0.04497826
21	0xbb1c92b0	-0.0023891144
22	0xbc7b083c	-0.015321787
23	0xbb6fac60	-0.003657125
24	0xbc17ee03	-0.009273055
25	0x3cb717bd	0.022350186
26	0x3ce51f8f	0.02796915
27	0x3cbcc387	0.023042453
28	0xb98eb9b6	-0.00027222716
29	0x3c12b954	0.0089553185
30	0xbd03a3e3	-0.032138716
31	0xbac01fa5	-0.0014657868

A_blocks.0.intro_bn.running_mean f4 [32]
0	0xbe9a23fe	-0.30105585
1	0xbe4e65fb	-0.2015609
2	0x3df93d93	0.121699475
3	0x3dfae2c6	0.12250285
4	0xbb1d8de7	-0.002404088
5	0xbdca99d2	-0.0989262
6	0x3eabb5bc	0.3353709
7	0x3e2149a6	0.15750751
8	0xbde078f7	-0.10960572
9	0x3eb196f3	0.34685478
10	0x3e134cf4	0.14384824
11	0x3e6c613b	0.23083965
12	0x3e88f38f	0.2674832
13	0xbe049053	-0.1294568
14	0xbe0ebf9b	-0.13940279
15	0x3ebe0642	0.3711415
16	0xbeb348f5	-0.350166
17	0xbc8e010e	-0.017334487
18	0x3d7ee2d3	0.062228035
19	0xbe7122cd	-0.23548432
20	0x3ef14cb4	0.47128832
21	0x3a8abaff	0.0010584294
22	0x3ef7bc2e	0.48385757
23	0xbe9981a4	-0.2998172
24	0x3e3e352c	0.18574971
25	0xbef6351d	-0.48087397
26	0xbe837a69	-0.2567933
27	0xbea00d04	-0.3125993
28	0xbe701ab3	-0.23447685
29	0x3ea4cf81	0.32189563
30	0xbe4ad938	-0.19809425
31	0x3e47b308	0.19501889

A_blocks.0.intro_bn.running_var f4 [32]
0	0x3c90a634	0.017657377
1	0x3cd09faf	0.025466768
2	0x3baf4676	0.005348976
3	0x3c2d7a64	0.010588262
4	0x3beaacda	0.007161719
5	0x3b8a4e24	0.004220741
6	0x3ad1cfe9	0.0016007397
7	0x3c53d5cd	0.012929392
8	0x3cad64ee	0.021166291
9	0x3bffee24	0.007810371
10	0x3a74a7a3	0.0009332841
11	0x3babe4a1	0.0052457605
12	0x3b3eb77b	0.0029101062
13	0x3b877fe4	0.004135119
14	0x3d2f7d00	0.04284382
15	0x3ca81d8d	0.020521903
16	0x3d4999d4	0.049218968
17	0x3c10c101	0.008835078
18	0x3a53f5c0	0.0008085631
19	0x3bb56202	0.005535365
20	0x3d5069f0	0.05088228
21	0x3caf8038	0.021423444
22	0x3cfe1cbc	0.031019561
23	0x3cf08162	0.02935857
24	0x3b1e82e6	0.0024186908
25	0x3bfcc7ce	0.0077142483
26	0x3b0704e0	0.002060227
27	0x3cdeac87	0.027181877
28	0x3d10398d	0.035211135
29	0x3aa6bc14	0.0012720847
30	0x3c3d556e	0.011556013
31	0x3b4bea62	0.0031115045

A_blocks.0.C11.weight f4 [32, 32, 5]
0	0x3cc89018	0.024482772
1	0x3d6984ac	0.05701129
2	0xbd66b1cd	-0.056321908
3	0xbd48bb23	-0.049006592
4	0xbdaeddf7	-0.0853843
5	0xbdb8d8d9	-0.090257354
6	0x3cf6a9ef	0.030110328
7	0x3d966ba7	0.07344752
8	0xbd6a74f1	-0.05724043
9	0xbce04e3a	-0.027381051
10	0xbc8e3eb6	-0.017363887
11	0x3d4398a6	0.047753
12	0x3d528724	0.05139841
13	0x3d39227c	0.045198902
14	0x3d26f04c	0.04075651
15	0x3c75cf0c	0.015002977
16	0xbbff0740	-0.0077828467
17	0xbd898a5f	-0.06715845
18	0x3b28a30a	0.0025731944
19	0xbced607c	-0.028976671
20	0x3d8e0016	0.0693361
21	0xbd10f088	-0.03538564
22	0x3d4776ce	0.048697285
23	0xbd91af4b	-0.071135126
24	0x3d1dc3e2	0.038516887
25	0x3d653250	0.055956185
26	0x3d97d604	0.07413867
27	0x3d390115	0.045167048
28	0xbc812495	-0.015764514
29	0x3d095c6c	0.033535406
30	0xbb490173	-0.003067103
31	0xbd28356e	-0.04106658
32	0xbcb5aced	-0.022177184
33	0x3c51fd5c	0.012816753
34	0x3d34c454	0.044132546
35	0xbce5d709	-0.028056638
36	0x3d096db9	0.033551905
37	0xbbbcc1a2	-0.0057603875
38	0x3ca4556b	0.020060262
39	0x3cbc31c4	0.022972949
40	0x3d80e10b	0.062929235
41	0xbda4647c	-0.080269784
42	0x3c4aa10e	0.0123675
43	0x3d95d3ec	0.073158115
44	0xbc81dabd	-0.015851373
45	0xbd41a83b	-0.047279578
46	0xbd7f06fb	-0.062262516
47	0xbbe0b54f	-0.006857551
48	0x3ba8e758	0.0051545314
49	0x3d26d2d3	0.0407284
50	0xbbb18db2	-0.0054185027
51	0xbd39b3f6	-0.04533764
52	0xbb5d613f	-0.0033779887
53	0x3d913e40	0.07091951
54	0xbc4cbab2	-0.0124956835
55	0xbcd2df3e	-0.025741216
56	0x3cd98358	0.026551887
57	0xbad4a47a	-0.0016223334
58	0x3d866bc7	0.06563526
59	0x3d5330cd	0.051560212
60	0xbdc8fa8b	-0.09813412
61	0xbd7dc2dd	-0.061953414
62	0xbd3fcd5f	-0.046826717
63	0xbc36ca84	-0.011156682
64	0xbdbbed2f	-0.091760986
65	0xbd04dc7a	-0.032436825
66	0xbd670a64	-0.056406394
67	0x3d9ebab1	0.07750452
68	0xbc635d0e	-0.013877166
69	0xbd855d93	-0.065119885
70	0xbc4d77a6	-0.012540733
71	0xbcdd3b05	-0.027005682
72	0xbd6c1fce	-0.05764752
73	0xbd4f3945	-0.050591726
74	0xbd0daef6	-0.034590684
75	0x3d97f5b8	0.07419914
76	0xbd8a0d46	-0.06740813
77	0xbd7940e7	-0.06085291
78	0x3da95b54	0.082693726
79	0xbd8ee34c	-0.06976947
80	0xbd8715ca	-0.06595953
81	0x3c7bcd85	0.015368824
82	0x3cbecd39	0.023291217
83	0xbd547f82	-0.051879413
84	0xbd637015	-0.05552681
85	0xbd90ad6a	-0.07064326
86	0x3b0dc9bf	0.0021635143
87	0xbd186f49	-0.037215505
88	0x3d0b1480	0.033955097
89	0x3c454572	0.012040483
90	0x3de18d36	0.11013262
91	0x3ddd55e2	0.108073965
92	0xbcbeee0a	-0.023306865
93	0xbd7401a2	-0.05957187
94	0xbd7e7dd7	-0.06213173
95	0xbc5d8c82	-0.013522269
96	0x3d503fc6	0.05084207
97	0x3d232600	0.03983116
98	0xbb2ad20a	-0.0026065134
99	0x3d00acc6	0.03141477
100	0xbd55237f	-0.052035805
101	0x3d5f3ba1	0.054500226
102	0x3da64476	0.08118527
103	0xbd935f19	-0.07195873
104	0x3d6930be	0.05693125
105	0xbd5e3e11	-0.05425841
106	0x3a3146f6	0.0006762588
107	0xbc35c4ef	-0.011094316
108	0x3d98b8a0	0.074570894
109	0xbd830856	-0.06398074
110	0xbd870e92	-0.06594576
111	0xbdc5f067	-0.09664994
112	0xbd8f1dc9	-0.06988103
113	0x3d220c6a	0.03956262
114	0x3dc4f8a4	0.09617737
115	0xbd20f8a8	-0.039299637
116	0xbc5c640f	-0.01345159
117	0x3ca248bd	0.019810075
118	0x3ce7301d	0.028221184
119	0xbccdf346	-0.025140416
120	0x3d24171c	0.0400611
121	0xbd904fde	-0.070464835
122	0xbd69f7a4	-0.057120934
123	0x3da7e26c	0.081974834
124	0xbcbe918e	-0.023262765
125	0x3d47ac67	0.0487484
126	0x3be3c7e7	0.0069513205
127	0x3d90c3a1	0.07068563
128	0x3b1253eb	0.002232785
129	0x3cff056f	0.03113052
130	0xbd85a1c0	-0.06524992
131	0xbdb91a02	-0.09038164
132	0x3d78a2a0	0.060701966
133	0xbac9d52e	-0.0015398616
134	0xbd1ae820	-0.037819028
135	0xbc64f978	-0.013975494
136	0xbd553039	-0.05204794
137	0x3d900b3a	0.07033391
138	0xbd2586ef	-0.040411886
139	0xbd4893a1	-0.048968915
140	0x3d04c744	0.032416597
141	0xbd4dade9	-0.05021468
142	0xbd81006d	-0.06298909
143	0xbd520f5c	-0.05128418
144	0xbd96e5b1	-0.07368029
145	0x3da9800d	0.08276377
146	0xbd9c0a75	-0.07619182
147	0xbc99f5ff	-0.018794058
148	0xbc749ca3	-0.014929923
149	0x3c94cd53	0.018164312
150	0x3d564b72	0.052318044
151	0xbd602986	-0.0547271
152	0x3d5c4129	0.05377308
153	0x3db11ae9	0.08647711
154	0x3d14c63a	0.036321856
155	0xbd19d785	-0.03755905
156	0xbd50ad96	-0.050946794
157	0xbd271cdf	-0.040799018
158	0xbd610342	-0.054934748
159	0x3d029c5b	0.031887393
160	0x3d20a9ca	0.039224423
161	0xbd066035	-0.032806594
162	0xbd9881c3	-0.07446625
163	0xbd9318cc	-0.07182464
164	0xbd5eedf6	-0.054426156
165	0xbcc4d625	-0.024027893
166	0xbcfa65f0	-0.030566186
167	0xbd8e8b84	-0.06960204
168	0x3d562cbd	0.05228876
169	0xbd0a1395	-0.03371008
170	0xbd5191a7	-0.051164296
171	0x3c82e5ef	0.015978782
172	0xbd9903d5	-0.07471434
173	0xbc8c28e8	-0.01710935
174	0xbd63fe2f	-0.05566233
175	0x3c4fcf00	0.01268363
176	0x3cdd8cbb	0.027044645
177	0xbd55ebd6	-0.052226864
178	0x3d32d779	0.043662522
179	0xbd8ce176	-0.06878941
180	0x3d737505	0.05943777
181	0x3be57c7e	0.007003366
182	0x3c788452	0.015168266
183	0xbd6176dd	-0.055044997
184	0xbc833c7d	-0.016020054
185	0x3de70ace	0.11281358
186	0x3ca0656a	0.019579608
187	0xbd9e7d7a	-0.077387765
188	0xbcea4c50	-0.028600842
189	0x3d8d6d86	0.069056556
190	0xbd76e3a1	-0.060275678
191	0xbca9a8c3	-0.020710355
192	0xbca02a8b	-0.019551536
193	0x3dacf163	0.08444478
194	0x3c11ba0a	0.008894453
195	0x3d53a009	0.051666293
196	0xbd9cd29c	-0.07657358
197	0xbd5ba03f	-0.05361962
198	0xbb7305b4	-0.0037082257
199	0xbd48ee77	-0.049055543
200	0xbd2e45d1	-0.04254705
201	0xbc68e448	-0.014214583
202	0x3cee46fb	0.02908658
203	0xbd722e09	-0.059125934
204	0x3c9ff8d4	0.01952783
205	0xbd768cf7	-0.06019303
206	0x3c89e0a8	0.016830757
207	0xbdcc8c2d	-0.09987674
208	0xbd46952c	-0.048482105
209	0xbba3dc5e	-0.005000635
210	0xbd35aaac	-0.04435222
211	0x3dd9b106	0.10629468
212	0xbcd0953d	-0.025461787
213	0xbd047607	-0.032339122
214	0xbb30f140	-0.0026999265
215	0xbccdd013	-0.025123632
216	0xbd313e95	-0.043272574
217	0x3d93e6b2	0.07221736
218	0xbd323385	-0.043506164
219	0x3d029867	0.031883623
220	0x3c9cbda5	0.019133398
221	0xbd8ed76a	-0.06974681
222	0xbc9eb0d8	-0.019371435
223	0x3cfc655d	0.030810053
224	0x3d96bcd9	0.073602386
225	0x3d321a67	0.04348221
226	0xbd7b5695	-0.061361868
227	0xbbd1fc9b	-0.0064082867
228	0x3c8c6f9e	0.017143067
229	0x3da092d9	0.07840509
230	0xbd19d780	-0.037559032
231	0x3cf445c8	0.02981843
232	0x3d99957f	0.07499217
233	0xbd085756	-0.033286415
234	0xbd1a7857	-0.03771242
235	0xbd849c14	-0.06475082
236	0xbd8463cb	-0.064643465
237	0x3d900dcd	0.07033882
238	0x3c919a6d	0.017773831
239	0xbd38f359	-0.04515395
240	0x3c8f78a6	0.017513584
241	0xbc68231f	-0.01416853
242	0xbdb37b0e	-0.08763705
243	0x3d7725d9	0.06033883
244	0xbdacd161	-0.08438373
245	0xbd7df7fc	-0.062004074
246	0xbd04590c	-0.032311484
247	0xbba2db63	-0.0049700006
248	0xbcdebc02	-0.027189258
249	0xbd8aaec1	-0.06771613
250	0x3dc73a75	0.09727947
251	0x3de66010	0.11248791
252	0xbd67c9d4	-0.056588963
253	0xbc576e2a	-0.013148824
254	0x3cae9996	0.02131347
255	0x3d798f20	0.06092751

A_blocks.0.C11.bias f4 [32]
0	0x3cf3b1e5	0.029747913
1	0x3d640c22	0.055675633
2	0xbd23a377	-0.039950814
3	0x3ce0c01a	0.027435351
4	0x3dcda6ca	0.10041578
5	0xbc9d5429	-0.01920517
6	0xbdbea607	-0.09309011
7	0x3c690a0e	0.014223589
8	0x3ca054bf	0.01957166
9	0x3d137c69	0.03600732
10	0xbdba9ff7	-0.09112542
11	0x3d3a4a27	0.045480873
12	0x3d8695e0	0.06571555
13	0x3ce67e8f	0.02813652
14	0xbbfddf48	-0.0077475645
15	0x3d3ec8b4	0.046578124
16	0xbd63fceb	-0.055661123
17	0xbc855b4c	-0.016278885
18	0x3d0215ba	0.031759
19	0xbd699b65	-0.05703296
20	0x3d50c820	0.050972104
21	0x3d168ba7	0.036754277
22	0xbb49d2ff	-0.003079593
23	0xbbea97dd	-0.007159217
24	0x3d0bfcff	0.034176823
25	0x3c19ca94	0.009386677
26	0x3dcdf27d	0.100560166
27	0xbd25672f	-0.040381607
28	0xbd487657	-0.048940983
29	0xbd3a9bd0	-0.04555875
30	0x3c336067	0.010948277
31	0x3d0b5758	0.034018844

A_blocks.0.C12.weight f4 [32, 32, 5]
0	0xbd913d77	-0.070918016
1	0x3c445801	0.011983872
2	0x3cc1089f	0.023563681
3	0x3d66e231	0.056368057
4	0xbd184f33	-0.037184905
5	0x3daef97f	0.08543681
6	0xbcef1f9a	-0.029189873
7	0x3c6ebc05	0.014571195
8	0x3d8a1ed7	0.067441635
9	0xbd7c0f75	-0.06153818
10	0x3d731874	0.059349492
11	0xbd85279d	-0.06501696
12	0xbd7fcf81	-0.06245375
13	0x3d1e1759	0.038596485
14	0x3c80d8ac	0.015728317
15	0x3d6e861b	0.05823336
16	0x3da3ff82	0.080077186
17	0xbc8b6a14	-0.017018355
18	0xbd9af08e	-0.075654134
19	0x3d873d29	0.06603462
20	0x3d5d4aa1	0.05402625
21	0x3d84b217	0.064792804
22	0xbcbe9b4a	-0.023267407
23	0x3d5107e5	0.05103292
24	0xbc4bf313	-0.01244809
25	0x3b9c5c94	0.0047717784
26	0x3cc9f4be	0.024652835
27	0xbc2936e1	-0.010328026
28	0xbcf7b947	-0.030239714
29	0xbd2ead57	-0.04264578
30	0xbcffccb0	-0.031225532
31	0xbc62a518	-0.013833307
32	0x3d9bebec	0.07613358
33	0xbd711b1c	-0.058863744
34	0x3cbc8d52	0.023016606
35	0x3db6484b	0.089005075
36	0x3c906081	0.017624142
37	0x3d67e973	0.05661912
38	0x3d50e7a1	0.05100215
39	0x3d04d1fd	0.032426823
40	0xbd68e65f	-0.056860324
41	0xbcbb6e2a	-0.022879679
42	0xbc337dba	-0.0109552685
43	0xbc175bba	-0.009238178
44	0xbc6ac1ea	-0.014328459
45	0x3bb558ad	0.0055342526
46	0x3c951456	0.018198173
47	0x3daa9ef7	0.083311014
48	0x3c54ca84	0.012987737
49	0x3caabf9c	0.02084332
50	0x3d8d5acf	0.06902086
51	0x3d99283b	0.074783765
52	0xbccb2577	-0.024798138
53	0x3dbb3a3b	0.09141966
54	0xbd9d4092	-0.076783314
55	0x3d187bd7	0.037227478
56	0xbd337f93	-0.043822836
57	0x3c4e4e1e	0.012591867
58	0x3d58abba	0.052898146
59	0x3d035bf9	0.032070134
60	0xbcd04d7b	-0.02542757
61	0x3c354de8	0.011065938
62	0x3d9c9fae	0.07647644
63	0x3c2beb43	0.0104931025
64	0xbd6c540f	-0.057697352
65	0x3c3e356c	0.011609416
66	0x3d8d33bc	0.06894633
67	0x3b78b3e5	0.0037949022
68	0x3d0119c0	0.031518698
69	0xbd6f4a89	-0.05842069
70	0x3d039843	0.03212763
71	0xbd3ffffa	-0.046874978
72	0xbc25b72a	-0.0101144705
73	0x3da88689	0.082287855
74	0xbd75b25a	-0.059984542
75	0x3cdbea85	0.026845226
76	0x3b64c8ff	0.0034909842
77	0x3db644bd	0.088998295
78	0xbd4cd621	-0.050008897
79	0x3d1c60a6	0.03817811
80	0xbd203bf7	-0.039119687
81	0x3d2230c8	0.039597303
82	0x3a86e255	0.0010290841
83	0xbd2173cf	-0.039417084
84	0x3d27ff15	0.04101475
85	0xbc754695	-0.014970441
86	0xbd3088b1	-0.04309911
87	0xbc0eaad7	-0.008707724
88	0x3d67d6bc	0.05660127
89	0xbd6baefc	-0.057539925
90	0x3d2daeec	0.042403147
91	0xbd8d376b	-0.06895336
92	0x3d689d95	0.056790907
93	0xbc3c22e2	-0.011482926
94	0xbcb17663	-0.021662896
95	0x3d90bf9c	0.070677966
96	0x3d477d83	0.04870368
97	0x3d3e6d86	0.04649117
98	0xbd9a3556	-0.07529704
99	0x3d1050bf	0.035233255
100	0x3d6d63dc	0.05795656
101	0x3d8e91a9	0.06961376
102	0x3d0f0927	0.034920838
103	0xbc194c2b	-0.009356539
104	0xbcebb233	-0.028771495
105	0xbce08af9	-0.027410017
106	0x3d8a3e9c	0.06750223
107	0x3cfb8679	0.03070377
108	0xbd3838d0	-0.044976056
109	0xbbab0890	-0.0052195266
110	0x3ce5268f	0.027972488
111	0x3db169f5	0.08662788
112	0x3a4add64	0.0007738678
113	0xbd45c859	-0.04828677
114	0x3d2c50e9	0.04206935
115	0xbd42ff0f	-0.047606524
116	0x3d94400a	0.07238777
117	0x3d1ae5e2	0.03781689
118	0xbd3ef41a	-0.046619512
119	0x3d8d7f81	0.06909085
120	0xbc36eddb	-0.011165108
121	0xbd5ed835	-0.05440541
122	0x3d376284	0.044771686
123	0x3cd3e818	0.025867507
124	0x3da81977	0.08207982
125	0x3c24ae4e	0.010051323
126	0x3d894ff9	0.06704707
127	0xbd8f505c	-0.06997749
128	0xbd667ca8	-0.056271225
129	0xbd203806	-0.039115928
130	0x3d3e0436	0.046390735
131	0x3cb37cc3	0.021910077
132	0xbda5af01	-0.0809002
133	0xbd714dda	-0.058912136
134	0x3cfba5ca	0.030718703
135	0x3d153518	0.036427587
136	0x3d5b3326	0.053515576
137	0x3d573a55	0.052545864
138	0x3d637e11	0.05554015
139	0x3d8aaf50	0.067717195
140	0x3cb10cf5	0.021612624
141	0xbcb48217	-0.022034688
142	0x3d2143d7	0.039371338
143	0xbd5e27a0	-0.054237008
144	0x3d423e91	0.04742295
145	0x3da45023	0.08023097
146	0x3cc764fb	0.024340143
147	0x3c6e96ad	0.014562291
148	0xbd65b01f	-0.056076165
149	0x3d74da1a	0.05977831
150	0x3c5152e4	0.01277611
151	0x3cd7404b	0.026275774
152	0x3d5b62c6	0.053560995
153	0x3d72f54a	0.059315957
154	0x3cec8f57	0.028876944
155	0xbb598897	-0.0033192986
156	0xbd764266	-0.060121916
157	0xbd8151a0	-0.06314397
158	0x3dab537e	0.08365534
159	0x3bc41cca	0.0059848772
160	0xbc81dd1f	-0.015852509
161	0xbca44a03	-0.020054823
162	0xbd87c6ca	-0.06629713
163	0x3d8b8ae0	0.06813598
164	0x3d5ffa5d	0.054682124
165	0xbc84db5f	-0.016217886
166	0xbcebeafe	-0.028798576
167	0x3dbda5c1	0.09260131
168	0x3b9a9b0d	0.0047181905
169	0xbd04abd9	-0.03239045
170	0xbcedd6dd	-0.029033119
171	0xbd5392ad	-0.051653553
172	0xbd65d8d5	-0.05611499
173	0xbd00e8ea	-0.031472124
174	0x3ca34c73	0.019933915
175	0xbcf154c4	-0.029459365
176	0x3c59c12d	0.013290686
177	0x3d96dd2a	0.073664024
178	0x3cc32a59	0.023823904
179	0x3d040df6	0.032239877
180	0xbd67a606	-0.056554817
181	0xbdad56fb	-0.08463856
182	0xbd222c8f	-0.039593276
183	0x3cd34bfd	0.02579307
184	0x3d85bd46	0.06530242
185	0xbc3a7616	-0.011380693
186	0xbd9d0f59	-0.07668943
187	0xbcbf68ae	-0.023365345
188	0x3d4326e0	0.047644496
189	0x3c537577	0.012906424
190	0x3da13f2d	0.07873378
191	0x3d5a7373	0.053332757
192	0x3d1cb482	0.038258083
193	0x3d37b7da	0.04485307
194	0x3ca27147	0.019829405
195	0x3cddcf88	0.027076498
196	0xbd854228	-0.06506759
197	0xbb102e6a	-0.0022000321
198	0xbd2c8816	-0.04212197
199	0xbd02d023	-0.031936776
200	0x3c6240c3	0.013809386
201	0x3d6120b3	0.054962825
202	0x3c2078d7	0.009794435
203	0x3d495481	0.049152855
204	0xbd1f92fc	-0.038958535
205	0xbdd85fe7	-0.10565167
206	0x3d49c6a0	0.04926169
207	0xbcb12136	-0.021622282
208	0x3c20020f	0.009766116
209	0x3db00ade	0.08595823
210	0xbd14c58d	-0.03632121
211	0xbb7e8c98	-0.0038841125
212	0xbd71987a	-0.058983304
213	0x3d62da9f	0.055384275
214	0xbd59b4a8	-0.053150803
215	0xbcf591ca	-0.029976744
216	0xbd183d71	-0.03716797
217	0xbdb7b541	-0.08970118
218	0xbc7eba80	-0.015547395
219	0xbc5e03c3	-0.013550702
220	0xbd9c2a1f	-0.076252215
221	0x3d4791ee	0.048723154
222	0xbd86c41e	-0.06580375
223	0xbd509f84	-0.050933376
224	0x3b3e1504	0.0029004226
225	0xbd0d13a6	-0.034442566
226	0x3da5eeda	0.08102198
227	0x3d96eb13	0.073690556
228	0xbd01ac8f	-0.031658705
229	0x3d4e7abd	0.05041002
230	0x3d796027	0.060882714
231	0x3dbb70e7	0.09152394
232	0xbd30af8a	-0.043136157
233	0x3da7db9b	0.08196183
234	0x3d09abec	0.033611223
235	0xbd21dd8d	-0.039517928
236	0x3d4e90f7	0.050431218
237	0x3d25b49e	0.040455453
238	0xbda1c591	-0.07899011
239	0x3cdc0654	0.026858486
240	0x3dab8e28	0.083767235
241	0xbcfdaf5a	-0.030967403
242	0xbd3a35e5	-0.045461554
243	0x3cd2ca24	0.025731154
244	0x3c5f3525	0.0136235105
245	0xbcdbf05b	-0.026848009
246	0x3dd2b9c3	0.102893375
247	0xbceb9701	-0.028758528
248	0xbc1d01f2	-0.009582983
249	0xbbb6af2d	-0.005575082
250	0xbd90e203	-0.07074358
251	0xbdc008e9	-0.093766995
252	0xbd28c0f1	-0.04119963
253	0xbc72ab7e	-0.014811395
254	0x3bb59b6c	0.0055422094
255	0x3c6ff257	0.014645181

A_blocks.0.C12.bias f4 [32]
0	0x3d6e6e97	0.058210935
1	0xbd0fb4d6	-0.035084568
2	0x3d861935	0.065477766
3	0xbd60e009	-0.054901157
4	0x3c5afd82	0.013366105
5	0x3d80ab78	0.06282705
6	0x3c2ace91	0.010425226
7	0x3d860bb8	0.06545204
8	0xbd27767b	-0.040884476
9	0xbcc5299d	-0.024067694
10	0x3d6c3689	0.057669196
11	0x3d27dc22	0.04098142
12	0x3d882790	0.06648171
13	0xbd83c1f3	-0.06433477
14	0xba86ffad	-0.0010299586
15	0x3cf9ab51	0.030477198
16	0x3d694df0	0.056959093
17	0x3d80132b	0.06253656
18	0xbd31f0dc	-0.043442592
19	0x3d1cdf8f	0.03829914
20	0xbdb76b76	-0.089560434
21	0x3d5c680e	0.05381017
22	0x3daf53fd	0.08560941
23	0xbca52b30	-0.020162195
24	0x3d75058c	0.059819743
25	0xbb384112	-0.0028114957
26	0x3d7b18c1	0.061302904
27	0x3dbc7c4a	0.09203394
28	0x3c1a1112	0.009403484
29	0xbd098ec3	-0.033583414
30	0x3ce837e4	0.028346963
31	0xbcd8874e	-0.026431706

A_blocks.1.intro_bn.weight f4 [32]
0	0x3f81ac33	1.0130676
1	0x3f8127b7	1.0090245
2	0x3f8024b7	1.0011204
3	0x3f77765a	0.96664965
4	0x3f79b081	0.9753495
5	0x3f8528e5	1.0403105
6	0x3f824d13	1.0179771
7	0x3f7f7184	0.99782586
8	0x3f766de4	0.9626143
9	0x3f808fcd	1.0043885
10	0x3f8373e8	1.0269747
11	0x3f7d4320	0.9893055
12	0x3f8094f7	1.004546
13	0x3f801a69	1.000806
14	0x3f7d0e29	0.9884973
15	0x3f7734b3	0.9656479
16	0x3f80e8a0	1.0070992
17	0x3f823b8f	1.0174426
18	0x3f80cce9	1.0062534
19	0x3f80ba83	1.0056919
20	0x3f7ba830	0.9830351
21	0x3f7b6d13	0.9821331
22	0x3f7ca359	0.9868675
23	0x3f7bc484	0.98346734
24	0x3f83177d	1.0241543
25	0x3f797ecf	0.9745912
26	0x3f80ee58	1.0072737
27	0x3f81d11e	1.0141943
28	0x3f7fa17e	0.9985579
29	0x3f808f8c	1.0043807
30	0x3f822cd6	1.0169933
31	0x3f76e403	0.9644167

A_blocks.1.intro_bn.bias f4 [32]
0	0xbc06ccad	-0.008227509
1	0xbb281db8	-0.002565248
2	0x3c867fa7	0.016418291
3	0xbc1df125	-0.009640013
4	0x3c226fd1	0.009914354
5	0x3c1c2902	0.009531261
6	0x3cd7ab60	0.026326835
7	0xbb9ffeed	-0.0048826844
8	0x3b5b5c5d	0.00334718
9	0x3c12beab	0.008956592
10	0xbb9f1417	-0.00485469
11	0x3b7f15d2	0.0038922918
12	0x3b82771d	0.0039814846
13	0x3c6de456	0.014519772
14	0xbaceb6be	-0.0015771014
15	0xbac5384f	-0.0015046688
16	0xbc3e14de	-0.011601655
17	0xbb2b13a6	-0.002610424
18	0xb946d978	-0.00018963765
19	0xbbf402fe	-0.0074466458
20	0xbcab7ec6	-0.020934474
21	0xb93732e0	-0.00017471192
22	0xbcfd6f7b	-0.030936947
23	0x3b3bf405	0.0028679383
24	0x3ccfa88a	0.02534892
25	0xbc4ee5d6	-0.012628039
26	0x3a742d3f	0.00093146035
27	0xbc105d9e	-0.008811383
28	0xbb9b88d1	-0.0047465344
29	0x3c6fb6a2	0.014630945
30	0xbc036226	-0.008019006
31	0x3caa01ab	0.020752748

A_blocks.1.intro_bn.running_mean f4 [32]
0	0x3f862997	1.0481442
1	0x3f4345c0	0.76278305
2	0x3f8d618f	1.1045398
3	0x3f40ccd1	0.75312525
4	0x3f79befc	0.97557044
5	0x3f210d9c	0.6291139
6	0x3f1a2d3a	0.6022526
7	0x3f614611	0.8799754
8	0x3f047e7e	0.5175551
9	0x3f249c63	0.6430113
10	0x3f3a0b9c	0.72673965
11	0x3f17d943	0.5931589
12	0x3ef909c0	0.4864025
13	0x3f224a5b	0.6339471
14	0x3f1aa6e1	0.60410887
15	0x3f7bf5c5	0.9842189
16	0x3ddb6cc7	0.10714107
17	0x3ebbefa3	0.36706266
18	0x3f475c7c	0.77875495
19	0x3e97a28d	0.29616204
20	0x3ea64ec1	0.3248196
21	0x3f5932c4	0.8484309
22	0x3f54d07d	0.8313063
23	0x3f40c83b	0.7530553
24	0x3e957460	0.2919035
25	0x3f42ae59	0.76047283
26	0x3e0b1a05	0.13584144
27	0x3f3e12fa	0.74247706
28	0x3f3676a7	0.712748
29	0x3e812909	0.2522662
30	0x3da7c61e	0.08192085
31	0x3f9be89d	1.2180363

A_blocks.1.intro_bn.running_var f4 [32]
0	0x3f220e0b	0.6330268
1	0x4008f355	2.1398518
2	0x40594239	3.394667
3	0x3f4de655	0.80429584
4	0x400b2839	2.17433
5	0x3e9220d0	0.2854066
6	0x40204cd9	2.5046904
7	0x3f1bdb24	0.6088126
8	0x3f5393fa	0.8264767
9	0x3ea1b627	0.31584284
10	0x3f9e4124	1.2363629
11	0x4013a621	2.3070147
12	0x3fa29f83	1.2704929
13	0x3fc568a1	1.5422555
14	0x3fa84256	1.3145244
15	0x402b40b8	2.675825
16	0x3d4af578	0.049550503
17	0x3e97616a	0.2956651
18	0x3f06cfeb	0.5266101
19	0x3ee27390	0.44228792
20	0x3f0d49aa	0.5519053
21	0x4002cada	2.043631
22	0x3ff8abf1	1.9427472
23	0x3fd052d2	1.6275275
24	0x3f42ae58	0.7604728
25	0x3f92c221	1.1465493
26	0x3e2fde6b	0.1717469
27	0x3eb42207	0.3518221
28	0x3ed8a953	0.42316684
29	0x3e6ea48b	0.23304956
30	0x3dcb5881	0.0992899
31	0x409b65a6	4.8561583

A_blocks.1.C11.weight f4 [32, 32, 5]
0	0xbcd7822b	-0.026307186
1	0x3d4c8bfd	0.04993819
2	0xbc57bb1f	-0.013167172
3	0x3bb8c866	0.0056391237
4	0xbd99970a	-0.074995115
5	0xbcadd018	-0.02121739
6	0xbd639796	-0.055564485
7	0x3ce8da12	0.028424297
8	0xbd1bdb85	-0.038051147
9	0xbdc96355	-0.09833399
10	0xbd8ef819	-0.069809146
11	0x3d5113ea	0.051044382
12	0xbcdbab0f	-0.026814966
13	0x3d4f6b94	0.050639704
14	0xbd3d49aa	-0.04621283
15	0xbd4c8f48	-0.04994133
16	0x3c118684	0.008882169
17	0x3dbfe5c9	0.0937
18	0xbd428b0f	-0.047495898
19	0x3d1ca209	0.038240466
20	0xbc8676a1	-0.016413989
21	0xbda570af	-0.08078133
22	0x3ae96d8e	0.0017809139
23	0xbd4b37e2	-0.04961384
24	0x3d5b0c23	0.05347837
25	0xbd7d4891	-0.061836783
26	0xbcaeeba4	-0.021352597
27	0x3d4d77d8	0.05016312
28	0xbc9fcb41	-0.019506099
29	0xbd4ca5ab	-0.04996268
30	0xba025be6	-0.00049728004
31	0xbc21e987	-0.009882337
32	0x3d683eef	0.056700643
33	0x3d066a21	0.032816056
34	0xbc307bdd	-0.010771719
35	0x3d3360e2	0.043793567
36	0x3d1d8901	0.038460735
37	0x3b08821f	0.0020829511
38	0x3d112305	0.035433788
39	0xbd9f6c06	-0.07784276
40	0xbd2f228c	-0.042757556
41	0x3d1569e3	0.036477935
42	0x3d9bbf78	0.07604879
43	0xbcef79c0	-0.02923286
44	0xbc871b2c	-0.016492449
45	0x3da2392d	0.07921062
46	0xbd2c93b0	-0.042133033
47	0x3b3a79a7	0.0028453858
48	0xbda04a11	-0.07826627
49	0x3d304ca3	0.043041836
50	0x3da9425c	0.0826461
51	0xbcc9d5ba	-0.024638046
52	0x3d2c1808	0.042015105
53	0x3d4c1a22	0.04982961
54	0xbd967634	-0.07346764
55	0x3db57867	0.088608555
56	0x3d34dee5	0.04415788
57	0x3d47099c	0.04859315
58	0x3d3dfcd5	0.046383698
59	0xbd067d9f	-0.032834645
60	0x3d4bb8dd	0.049736846
61	0x3dc7ce42	0.097561374
62	0x3bed27b5	0.0072373995
63	0x3d1cc003	0.038269054
64	0xbd4eafff	-0.05046081
65	0xbca7fa89	-0.020505207
66	0xbce2e2e7	-0.027696086
67	0x3c5c2eb3	0.013438868
68	0x3c6a23ca	0.014290759
69	0xbbe794e1	-0.0070673083
70	0x3d893a60	0.06700587
71	0x3c86ddd8	0.016463205
72	0x3d057c7f	0.03258943
73	0xbcf67eb9	-0.030089723
74	0xbc3b46af	-0.0114304265
75	0x3d3526a6	0.04422631
76	0xbc5b735a	-0.013394201
77	0xbd8923ac	-0.06696257
78	0xbd9eee15	-0.07760254
79	0xbd58cfec	-0.052932665
80	0x3dd55ab5	0.104176916
81	0x3d948863	0.07252576
82	0x3d7088d6	0.058724247
83	0xbd3c2aea	-0.045939364
84	0x3d5961d9	0.05307183
85	0xbd1dbfa2	-0.038512833
86	0x3d0ee775	0.034888703
87	0xbd03baa4	-0.032160416
88	0xbdb9cc14	-0.09072128
89	0x3cc71dca	0.024306197
90	0xbd1ff333	-0.039050292
91	0xbd4e6565	-0.050389666
92	0xbd3f4002	-0.046691902
93	0xbd84f6d8	-0.06492394
94	0xbd65db64	-0.05611743
95	0xb9d361fb	-0.00040318057
96	0xbd701f32	-0.0586235
97	0x3d84c87d	0.064835526
98	0xbbd511a6	-0.006502348
99	0xbbb09f65	-0.005390095
100	0x3d1c3e69	0.038145456
101	0x3da855c7	0.08219486
102	0x3da82a5c	0.082112044
103	0xbd75ac82	-0.05997897
104	0xbc15f9ba	-0.009153778
105	0xbcf21674	-0.029551722
106	0x3d2cca99	0.0421854
107	0xbd5fa686	-0.05460217
108	0xbcebd12e	-0.028786268
109	0xbd1481cb	-0.036256593
110	0xbd0b13d4	-0.033954456
111	0xbd78d147	-0.060746457
112	0xbd54f99f	-0.05199587
113	0x3cfbdcb4	0.030744888
114	0x3cb686e3	0.022281116
115	0xbd90cf81	-0.07070828
116	0xbcb8bee6	-0.022551965
117	0xbd35d9d6	-0.044397198
118	0xbd081240	-0.03322053
119	0x3cb3291b	0.021870187
120	0x3d8efff8	0.06982416
121	0x3d743b15	0.059626658
122	0xbc85ac36	-0.016317468
123	0xbc5a8b5f	-0.013338893
124	0x3d88a87a	0.06672759
125	0x3d825b96	0.06365125
126	0x3d761371	0.060077135
127	0xbd6a4921	-0.057198647
128	0x3cb17e56	0.021666687
129	0xbce8bcbd	-0.02841031
130	0x3c363f71	0.011123524
131	0x3d6255de	0.05525767
132	0x3c29fb9d	0.010374931
133	0x3ccbe13b	0.024887672
134	0xbc78459c	-0.015153315
135	0xbd40e8b9	-0.04709694
136	0xbcd5faaf	-0.026120512
137	0x3d1e5c2e	0.03866213
138	0xbca73134	-0.020409204
139	0xbd5a13b4	-0.053241447
140	0xbafaea52	-0.0019143319
141	0xbd2ba931	-0.0419094
142	0x3db4f049	0.08834893
143	0x3d2df056	0.04246553
144	0xbc8f2167	-0.017471982
145	0x3a7e7e37	0.00097081385
146	0xbac81b26	-0.001526688
147	0x3af9c692	0.0019056371
148	0x3a9b191b	0.0011833044
149	0x3cda9488	0.026682153
150	0xbce8f7d3	-0.028438484
151	0xbdc14d44	-0.094385654
152	0xbdb010f6	-0.08596985
153	0x3d8266af	0.063672416
154	0xbc61e912	-0.013788478
155	0xbbbe0228	-0.005798597
156	0x3d866f8e	0.06564246
157	0xbc82ee19	-0.015982674
158	0xbd2128a7	-0.03934541
159	0xbd19c788	-0.037543803
160	0xbd9ea76f	-0.07746779
161	0xbd590f8e	-0.05299335
162	0x3d73a698	0.059485048
163	0x3c84364b	0.01613917
164	0x3c0de46d	0.008660418
165	0x3c0f7139	0.008755022
166	0xbc720004	-0.014770512
167	0xbcf92fde	-0.030418333
168	0x3d19bf7a	0.037536122
169	0xbd37d352	-0.044879265
170	0x3c361046	0.011112278
171	0x3bd1e267	0.006405163
172	0xbd762353	-0.06009228
173	0xbd0ae1ec	-0.033906862
174	0xba3804b0	-0.00070197415
175	0xbd727b5d	-0.05919968
176	0x3d89470f	0.067030065
177	0x3d63c7d0	0.055610478
178	0x3db56b64	0.08858374
179	0xbda3d136	-0.07998888
180	0x3d721600	0.059103012
181	0xbb705a8f	-0.003667507
182	0xbd668ffd	-0.05628966
183	0xbda730ac	-0.0816358
184	0x3d5cc211	0.053896014
185	0xbd5972bd	-0.05308794
186	0x3da0387a	0.07823272
187	0xbd6f1cc0	-0.058377028
188	0xbd6a87fc	-0.05725859
189	0x3d6a6707	0.05722716
190	0x3c4707e2	0.0121478755
191	0xbd67f997	-0.05663451
192	0x3cc97cb7	0.024595601
193	0xbc5ae0ed	-0.013359291
194	0xbc83b476	-0.016077261
195	0x3d2f19f7	0.04274937
196	0xbd1bfdb4	-0.038083747
197	0xbbb7759e	-0.005598738
198	0xbccd369c	-0.025050454
199	0xbdb9fb14	-0.090810925
200	0xbccde764	-0.02513475
201	0xbd0eb547	-0.03484085
202	0x3da1ef00	0.07906914
203	0x3d829312	0.06375708
204	0x3cb06246	0.021531235
205	0x3dbc496e	0.09193693
206	0x3c55b405	0.013043408
207	0x3d18d2f6	0.037310563
208	0xbdc2e873	-0.095169924
209	0xbda72489	-0.081612654
210	0x3cd86d1b	0.026419213
211	0xbd5f08c3	-0.054451715
212	0xbd611b6a	-0.054957785
213	0x3d9d8d4a	0.076929644
214	0x3db4bda2	0.08825232
215	0x3d4d5d62	0.050137885
216	0x3d698664	0.05701293
217	0x3cf6128e	0.030038144
218	0x3ca51404	0.020151146
219	0xbd8d57f4	-0.06901541
220	0x3de8361e	0.11338447
221	0x3c908354	0.017640747
222	0x3ce4d60b	0.027934095
223	0xbc878664	-0.016543575
224	0xbd03d240	-0.032182932
225	0x3d230e04	0.03980829
226	0x3d9665d9	0.07343645
227	0x3dabb9ef	0.083850734
228	0xbcb2de97	-0.021834655
229	0x3d397c00	0.04528427
230	0xbd2aef40	-0.041732073
231	0x3d37bc3f	0.04485726
232	0xbd4e5802	-0.0503769
233	0x3d64f98c	0.05590205
234	0x3d2dabc0	0.04240012
235	0x3ba89d8f	0.0051457356
236	0x3cccbbbe	0.024991866
237	0x3c39771e	0.011319904
238	0x3c2b6361	0.0104607055
239	0xbd77100b	-0.060318034
240	0x3ade9f32	0.00169847
241	0xbdae2b1c	-0.08504316
242	0xbd009d9c	-0.031400308
243	0xbd893f22	-0.06701495
244	0xbdb57cc1	-0.088616855
245	0xbc80451f	-0.01565796
246	0xbd467253	-0.04844887
247	0x3d8590ff	0.065217964
248	0x3cbed392	0.023294244
249	0x3a840781	0.0010073037
250	0x3ddc4f28	0.10757285
251	0xbd04c21f	-0.03241169
252	0x3d7228b3	0.059120845
253	0xbd22325d	-0.03959881
254	0x3ca7ebff	0.020498274
255	0xbca159f9	-0.019696223

A_blocks.1.C11.bias f4 [32]
0	0x3d292899	0.041298483
1	0x3d550877	0.052010026
2	0x3d7ae92e	0.061257534
3	0x3daac5f7	0.0833854
4	0x3abe9a66	0.0014541864
5	0xb9c5b809	-0.00037711885
6	0xbce34230	-0.027741522
7	0x3d3b318e	0.045701556
8	0x3c6ca0cd	0.014442635
9	0x3cd1edf3	0.025626158
10	0xbcf0ec5a	-0.029409576
11	0x3cd36a5c	0.025807552
12	0xbd8d4907	-0.068986945
13	0x3d793d22	0.060849316
14	0x3ac62670	0.0015117656
15	0xbd7e0aa6	-0.062021874
16	0xbcb42d42	-0.021994237
17	0x3c823649	0.015895026
18	0xbcdfda53	-0.027325785
19	0xbd90fc53	-0.07079377
20	0xbc0ecfed	-0.008716566
21	0x3d9e6ed5	0.07735983
22	0xbd7c0e4d	-0.061537076
23	0x3b874657	0.004128258
24	0xbd80ed72	-0.06295289
25	0xbd20f63c	-0.039297327
26	0xbcad225c	-0.021134548
27	0x3c1d11ff	0.00958681
28	0xbc341db1	-0.010993407
29	0x3d98330d	0.07431612
30	0xbd86bd71	-0.06579102
31	0x3da2e61e	0.079540476

A_blocks.1.C12.weight f4 [32, 32, 5]
0	0xbce865f1	-0.028368922
1	0xbc2db619	-0.0106024975
2	0xbd834888	-0.064103186
3	0x3d802dc3	0.06258728
4	0x3d41e018	0.047332853
5	0x3c95ce94	0.01828698
6	0xbd904215	-0.07043854
7	0xbd62b7eb	-0.05535118
8	0xbd56449b	-0.05231152
9	0x3d2c05dc	0.041997775
10	0xbb60ae7c	-0.0034283688
11	0x3d0d7250	0.034532845
12	0x3da8be45	0.08239416
13	0xbd37e9b4	-0.04490061
14	0x3da20b3b	0.07912298
15	0x3d62bc3a	0.055355288
16	0x3d61ad6e	0.055097036
17	0xbc72eab2	-0.014826464
18	0x3d999af0	0.07500255
19	0x3d9ed070	0.077546
20	0x3d4a48f0	0.049385965
21	0xbda14b7e	-0.07875727
22	0xbda2a93c	-0.07942435
23	0x3bacf747	0.005278501
24	0xbbe14709	-0.006874923
25	0xbba024af	-0.0048871855
26	0x3db2d891	0.08732713
27	0x3c8fc3d7	0.017549438
28	0x3d997312	0.07492651
29	0x3da07542	0.07834865
30	0xbc16959c	-0.009190943
31	0x3b0ab310	0.0021163858
32	0x3d8c400f	0.06848156
33	0x3c61c829	0.013780632
34	0xbb16b48d	-0.00229958
35	0xbd931283	-0.07181265
36	0xbc947ec0	-0.018126845
37	0x3d628363	0.05530108
38	0x3aabdff6	0.001311301
39	0x3d12b7c8	0.0358198
40	0x3c9e2705	0.019305715
41	0x3d39e0d3	0.045380425
42	0x3bf79906	0.0075560836
43	0x3ce1a16b	0.02754279
44	0xbc0a339f	-0.008435159
45	0x3c9da6c7	0.019244565
46	0xbd8ea2df	-0.06964659
47	0xbce3c264	-0.027802654
48	0xbd9ed31b	-0.07755109
49	0x3b8260d8	0.00397883
50	0xbcc7e7eb	-0.02440258
51	0xbcf14d36	-0.029455762
52	0x3cc00ea8	0.023444489
53	0x3da5993f	0.0808587
54	0x3d4874e9	0.04893962
55	0xbc370c99	-0.011172437
56	0x3cc160d2	0.023605738
57	0x3d249f5a	0.040191032
58	0x3d65bf9a	0.05609093
59	0x3e0355e8	0.1282574
60	0x3db9186d	0.09037862
61	0x3d839184	0.06424239
62	0xbb35b106	-0.0027723922
63	0x3b0388b2	0.002007049
64	0x3c9da4c8	0.019243613
65	0x3db3df87	0.08782869
66	0x3d9e31a2	0.077243105
67	0xbb9564d0	-0.004559137
68	0xbc759fdf	-0.0149917295
69	0xbcbabab8	-0.022794113
70	0x3caca166	0.021073055
71	0x3c228844	0.009920184
72	0xbd70a336	-0.0587494
73	0x3d19b72e	0.03752821
74	0xbd9d0ad0	-0.07668078
75	0x3a9469aa	0.0011322994
76	0xbc555b1d	-0.013022211
77	0xbd2d0628	-0.0422422
78	0xbc024eba	-0.00795334
79	0x3ca3fff0	0.020019501
80	0x3d22e9e5	0.03977384
81	0xbb7f6995	-0.0038972844
82	0xbd2469da	-0.04014001
83	0xbd81f4b3	-0.06345501
84	0xbd84e316	-0.06488626
85	0xbd0f4136	-0.0349743
86	0xbde1c7ea	-0.11024459
87	0x3d5cf402	0.05394364
88	0x3ca6cf8f	0.020362644
89	0xbd374eb6	-0.0447528
90	0xbd16e6e7	-0.0368413
91	0x3d4e02ca	0.05029563
92	0xbb2763b5	-0.0025541608
93	0x3d8bfc73	0.0683526
94	0x3c96ff44	0.018432267
95	0xba861ec0	-0.0010232553
96	0xbcb0d54c	-0.021586083
97	0x3d804bc8	0.06264454
98	0x3d26f4d2	0.040760823
99	0xbcb16400	-0.021654129
100	0xbcd13383	-0.025537258
101	0x3ada9ec9	0.0016679402
102	0x3d8df4d1	0.06931461
103	0xbd9ebbea	-0.077506855
104	0xbb1cd8cc	-0.0023932932
105	0xbd1103e1	-0.03540409
106	0x3bb9c074	0.005668694
107	0x3c669b9d	0.014075187
108	0xbc0c5b2f	-0.008566662
109	0xbda44cb7	-0.08022445
110	0x3bfe78a5	0.007765847
111	0x3cb02123	0.021500176
112	0x3c2ece6c	0.010669332
113	0xbd18b6b8	-0.03728363
114	0xbdc86e40	-0.097866535
115	0xbd313534	-0.04326363
116	0x3c26e65e	0.01018676
117	0x3a8fb162	0.0010962898
118	0xbd224315	-0.039614756
119	0xbd075eee	-0.033049516
120	0xbd1a2494	-0.03763254
121	0x3d7d0078	0.061768025
122	0x3d663768	0.056205183
123	0x3d0b9985	0.034081955
124	0xbd68a425	-0.056797165
125	0xbade2caf	-0.0016950573
126	0xbc8a4756	-0.016879719
127	0x3ca1a27e	0.019730803
128	0xbd2460b8	-0.0401313
129	0xbc6eccf1	-0.014575229
130	0xb9318d88	-0.0001693276
131	0x3d7a9f5c	0.061187133
132	0xbd0d4eba	-0.034498908
133	0xbc6ee750	-0.014581516
134	0x3cb0a09a	0.021560956
135	0x3c43e9f7	0.011957637
136	0x3cd33c6b	0.025785645
137	0xbd8392f1	-0.06424511
138	0xbcf554b9	-0.029947625
139	0x3c0a099b	0.008425142
140	0x3d8191a6	0.06326608
141	0x3d0557dd	0.032554496
142	0xbd3e8d2d	-0.046521354
143	0x3c7cdb90	0.015433207
144	0xbdba1a27	-0.090870194
145	0x3d34787f	0.044060227
146	0x3dbd8dcd	0.09255562
147	0x3d0cbd01	0.034359936
148	0x3d9504e5	0.07276324
149	0x3d90e9c1	0.07075835
150	0xbd4200c2	-0.047364004
151	0xbd45d571	-0.048299257
152	0xbd8f7b2c	-0.07005915
153	0xbc899842	-0.016796235
154	0x3dad3cc4	0.08458856
155	0xbd82f6ae	-0.06394707
156	0xbd4eca4d	-0.050485898
157	0x3bf9b1eb	0.0076200864
158	0x3bf5af84	0.0074977297
159	0x3d850258	0.06494588
160	0xbd00d465	-0.031452555
161	0x3d74453e	0.059636347
162	0x3d09bf3d	0.033629645
163	0xbd8e2c54	-0.06942049
164	0x3b822464	0.0039716233
165	0xbd027d45	-0.031857748
166	0xb9ed150c	-0.00045219844
167	0xbd5af9c9	-0.05346087
168	0x3d921eb2	0.07134761
169	0x3da7e624	0.08198193
170	0x3d0d93f8	0.034564942
171	0xbd6f7714	-0.05846317
172	0xbbe32287	-0.006931606
173	0xbd93b16b	-0.07211574
174	0x3d20a0f1	0.039215986
175	0xbcce513f	-0.025185226
176	0xbd5f5f65	-0.054534335
177	0x3da2dc77	0.079522066
178	0xbd24d0d8	-0.04023823
179	0x3d70ecdf	0.058819648
180	0xbd76dc9f	-0.060268994
181	0xbd0e6846	-0.03476741
182	0x3d8c4bad	0.068503715
183	0x3d92e467	0.071724705
184	0x3d060a3d	0.032724608
185	0xbdb2a82f	-0.08723485
186	0x3d9d763d	0.07688568
187	0x3d3ea500	0.046544075
188	0x3cc31f0c	0.023818515
189	0x3d354f0c	0.044264838
190	0xbcbb73f4	-0.02288244
191	0x3cc3b65f	0.023890672
192	0xbd50f222	-0.051012166
193	0xbc6129ae	-0.013742847
194	0xbb281bfe	-0.002565145
195	0x3ccac333	0.024751281
196	0x3c922e79	0.017844426
197	0x3cf0d2e8	0.029397443
198	0x3d36d0ac	0.0446326
199	0x3dac4fde	0.08413671
200	0x3dbe4fd7	0.09292572
201	0x3de126b3	0.109937094
202	0x3bce0b20	0.0062879473
203	0x3db6555b	0.08902999
204	0xbd13fdba	-0.036130644
205	0xbd724045	-0.059143323
206	0xbd5627b8	-0.052283973
207	0x3d0f5248	0.03499058
208	0x3d727f9e	0.059203736
209	0xbb7c4e4c	-0.0038498817
210	0x3d0abf3a	0.033873774
211	0x3c6efa8e	0.014586104
212	0x3c833ca3	0.016020125
213	0x3d2c726e	0.042101316
214	0xbcc5387a	-0.024074782
215	0xbb1a9dc0	-0.0023592561
216	0x3d48eb3e	0.04905247
217	0xbd13ff61	-0.03613222
218	0xbd61982a	-0.055076756
219	0xbe0d63ec	-0.13807648
220	0x3b52e836	0.0032181866
221	0xbd18ff28	-0.03735271
222	0xbcbbbd08	-0.022917286
223	0xbd917904	-0.0710316
224	0xbd8d36df	-0.068952315
225	0xbd05c4af	-0.032658275
226	0x3cf25e51	0.02958599
227	0x3d94fa57	0.07274311
228	0xbd144d34	-0.03620644
229	0xbd5f9190	-0.05458218
230	0xbbe5bff5	-0.0070114085
231	0x3b0b81eb	0.0021287154
232	0x3b129272	0.002236512
233	0x3d64464b	0.0557311
234	0xbd076a69	-0.033060465
235	0xbd963bd1	-0.07335628
236	0x3d33bcfa	0.043881394
237	0x3d892150	0.06695807
238	0xbd581cf4	-0.052761987
239	0xbdab7f4f	-0.083738916
240	0xbdba2118	-0.090883434
241	0x3d183848	0.03716305
242	0xbc4e7d23	-0.012603077
243	0xbd2f68ba	-0.042824484
244	0x3d5ca2d9	0.05386624
245	0xbd72eda2	-0.059308656
246	0xbd53ce73	-0.051710557
247	0x3d99cabb	0.07509371
248	0xbc2605ef	-0.010133251
249	0x3dafbd1d	0.08580992
250	0xbd4a02ef	-0.049319204
251	0x3d3c9360	0.046038985
252	0xbd3b76c8	-0.045767576
253	0xbd331c54	-0.043728188
254	0x3cdcfbed	0.026975596
255	0xbcec9587	-0.028879894

A_blocks.1.C12.bias f4 [32]
0	0xbd19d91f	-0.03756058
1	0x3d617ba4	0.055049554
2	0x3dee12d5	0.11624686
3	0xbd4b42ab	-0.049624126
4	0x3d4cf165	0.0500349
5	0x3a9bd70c	0.001188965
6	0x3d9c8982	0.07643415
7	0xbd4151ec	-0.047197267
8	0x3d7fee1c	0.06248294
9	0xbd7e000d	-0.062011767
10	0xbd70a701	-0.058753017
11	0xbc00a219	-0.007851147
12	0xbc0bf925	-0.008543287
13	0x3d245cc2	0.040127523
14	0xbc5fe5cf	-0.0136656305
15	0x3d123300	0.03569317
16	0xbcf1e002	-0.02952576
17	0xbcd437c4	-0.025905497
18	0xbd045380	-0.032306194
19	0xbd7c29a7	-0.06156316
20	0x3d091eb1	0.033476535
21	0x3d64ac50	0.055828393
22	0xbdd6f78e	-0.10496436
23	0xbc93dd4a	-0.018049855
24	0xbd883924	-0.06651524
25	0xbd600420	-0.054691434
26	0x3caa8ca1	0.02081901
27	0x3c5d2a88	0.01349891
28	0x3d8e0bdd	0.069358565
29	0xbd3264f7	-0.04355332
30	0xbc7b305b	-0.015331353
31	0x3dc2453f	0.09485864

A_blocks.2.intro_bn.weight f4 [32]
0	0x3f823bf9	1.0174552
1	0x3f839c5a	1.028209
2	0x3f7db444	0.9910319
3	0x3f7eb185	0.99489623
4	0x3f7d4cc5	0.98945266
5	0x3f848308	1.0352488
6	0x3f7b4c06	0.9816288
7	0x3f8270fb	1.0190729
8	0x3f809409	1.0045177
9	0x3f79099e	0.972803
10	0x3f8002e8	1.0000887
11	0x3f741e19	0.95358425
12	0x3f79f8af	0.97645086
13	0x3f7c0273	0.9844124
14	0x3f7dc665	0.9913085
15	0x3f80b1a1	1.0054208
16	0x3f8380df	1.0273703
17	0x3f811a91	1.0086232
18	0x3f82ea81	1.0227815
19	0x3f8850dd	1.0649678
20	0x3f83acbc	1.0287089
21	0x3f80ec73	1.0072159
22	0x3f786520	0.97029305
23	0x3f78a6ef	0.9712972
24	0x3f7aaf24	0.97923493
25	0x3f77875d	0.9669092
26	0x3f7d6a0a	0.9898993
27	0x3f7d2990	0.98891544
28	0x3f7ee0a5	0.9956153
29	0x3f7d675a	0.98985827
30	0x3f83031a	1.0235322
31	0x3f76d6a0	0.9642124

A_blocks.2.intro_bn.bias f4 [32]
0	0xbd2def48	-0.042464525
1	0xbc338840	-0.0109577775
2	0x3c4d8c5a	0.012545669
3	0xbc0cb7cf	-0.008588745
4	0xbcf0e527	-0.029406143
5	0xbcd70675	-0.026248196
6	0x3ca7e8e9	0.020496802
7	0xbcf24546	-0.029574048
8	0xbc946da3	-0.018118685
9	0xbb174317	-0.002308076
10	0xbd138759	-0.03601775
11	0xba911c81	-0.0011071117
12	0xbccc6498	-0.02495031
13	0x3bba9c96	0.005694936
14	0x3b66373d	0.003512814
15	0x3a9a8bb1	0.0011790899
16	0xbcd7d3bf	-0.026346086
17	0x3bcee217	0.006313573
18	0x3cc45199	0.02396469
19	0xbc971072	-0.018440459
20	0xbd335add	-0.043787826
21	0xbd1bfd47	-0.03808334
22	0xbd18b89b	-0.03728543
23	0xbc567c70	-0.013091192
24	0x3c492432	0.012276696
25	0xbc8b06fa	-0.0169711
26	0xbc353716	-0.011060497
27	0xbc8f2629	-0.01747425
28	0xbc918762	-0.01776475
29	0xbcd125d2	-0.02553073
30	0xbc86a86f	-0.016437737
31	0x3bb54a87	0.005532566

A_blocks.2.intro_bn.running_mean f4 [32]
0	0x3f2f4fd4	0.68481183
1	0x3f832b9f	1.0247687
2	0x3f52ed53	0.8239338
3	0x3e806335	0.2507569
4	0x3f34e23b	0.706577
5	0x3f41837a	0.7559124
6	0x3f8b84ff	1.0899962
7	0x3f3fd408	0.7493291
8	0x3ee6d13d	0.4508151
9	0x3f7179e1	0.943266
10	0x3f02af25	0.510485
11	0x3f445899	0.7669769
12	0x3f52c9a3	0.82338923
13	0x3f2492d7	0.6428656
14	0x3f20934b	0.6272475
15	0x3f319501	0.69367987
16	0x3eddac48	0.43295503
17	0x3f20d9ed	0.6283253
18	0x3f1020c7	0.56300014
19	0x3eb365ee	0.35038704
20	0x3ea8a5ab	0.32938895
21	0x3e222c31	0.1583717
22	0x3ed8ed7e	0.42368692
23	0x3f214d9c	0.6300905
24	0x3f10c74f	0.5655412
25	0x3ec9fecb	0.39452204
26	0x3eda3ee1	0.42626098
27	0x3f15112d	0.58229333
28	0x3fa0ea92	1.2571585
29	0x3f20a772	0.627555
30	0x3e91de91	0.28490117
31	0x3fa7c7df	1.3107871

A_blocks.2.intro_bn.running_var f4 [32]
0	0x3f27c0e6	0.65528715
1	0x404000af	3.0000417
2	0x3fd3477b	1.6506189
3	0x3f127991	0.57216746
4	0x3fe06f33	1.7533935
5	0x40274e23	2.614144
6	0x403ab311	2.9171793
7	0x403507ee	2.828609
8	0x3f85ecf0	1.0462933
9	0x3fe95cb4	1.8231416
10	0x4009ddef	2.1541708
11	0x3fc79480	1.5592194
12	0x3fddacf4	1.7318406
13	0x3fa32fbe	1.2748945
14	0x400bd1b3	2.184674
15	0x40138c9f	2.3054578
16	0x3f7975d2	0.97445405
17	0x3fdca377	1.7237386
18	0x3e98af94	0.29821455
19	0x3f0accaf	0.5421857
20	0x3f59795f	0.8495082
21	0x3eb8eb5e	0.3611707
22	0x3f576ae7	0.84147495
23	0x3f8b3788	1.0876322
24	0x3fcf2d2f	1.6185664
25	0x3f63064c	0.88681483
26	0x3fd8043b	1.6876291
27	0x3ebdb8e6	0.3705513
28	0x40114f46	2.2704635
29	0x3f8a9427	1.0826463
30	0x3f8604ea	1.047025
31	0x4092a733	4.58291
