src/model_fold_0.pth (torch, 231376 bytes, 46 tensors)

conv_in.weight f4 [32, 1, 5]
0.25437394 0.1768225 0.03501588 0.22305053 0.4742044 -0.4508398 -0.26425272 -0.40320912
-0.33740485 -0.42362478 0.45668605 0.12384514 -0.2366506 -0.11128381 0.045687202 -0.0914788
0.11125315 0.2565104 -0.008048147 0.34638518 -0.17755304 0.18099523 -0.15781729 -0.35958505
-0.260889 0.42652252 -0.050904363 -0.12985139 0.40718028 0.058108322 -0.024496859 0.14064085
-0.00029156648 -0.30895546 0.20514 -0.4582117 -0.20369275 0.3079777 0.2212865 0.27569142
-0.35269657 0.1427123 0.28824037 0.29876325 0.34538898 -0.3215444 0.2991181 0.4754849
-0.25740173 -0.3392908 0.24576332 0.46937475 0.019343037 0.27073154 -0.25405112 -0.15199023
-0.26643884 0.3294259 -0.30082065 0.09100518 -0.4167301 -0.42206526 -0.3746697 0.09376208
-0.27249837 -0.23037152 0.24655692 0.0522602 -0.31852767 0.25909665 0.339161 0.19742022
0.2817462 0.070101015 -0.20101734 0.08702022 -0.16346288 -0.09710357 -0.018383654 0.38377202
0.15587999 -0.003653249 -0.07282118 0.1384761 -0.3752934 -0.4315103 0.069649614 -0.38278475
-0.17098597 0.14593981 -0.20554456 0.31234705 -0.27807117 0.20276707 -0.3785506 0.1853631
0.21931687 -0.06790479 0.23929724 -0.38476023 -0.12896961 -0.3982511 0.14823161 -0.36154076
0.11556915 0.4231065 0.027888075 0.052548017 -0.3868843 -0.1757055 -0.37445676 0.37660724
-0.13503633 -0.16740495 -0.4120887 0.31668565 -0.108533286 0.31443587 -0.3736344 -0.014241442
-0.2191621 -0.23191091 0.13589449 0.3300335 -0.02658795 -0.089447975 0.42232525 0.16776085
-0.4058823 0.4343199 0.055592585 0.34313056 0.039250337 -0.19956037 0.2613761 0.038932998
-0.37736338 -0.3255628 0.37573493 -0.3698598 0.12229563 0.061687686 -0.1959015 -0.010274086
0.17153336 0.30378523 -0.39568865 -0.30125836 0.3648341 0.115596056 0.044795025 0.4159112
-0.37973785 0.08200056 0.41473082 -0.28278473 0.21653399 0.28925043 -0.12778938 -0.3795542
00000000: 4d3d 823e f510 353e d06c 0f3d 5c67 643e
00000010: ebca f23e 79d4 e6be 224c 87be 6d71 cebe
00000020: 54c0 acbe 59e5 d8be c1d2 e93e 85a2 fd3d
00000030: 8954 72be c4e8 e3bd 8122 3b3d 3d59 bbbd
00000040: b1d8 e33d 5555 833e 60dc 03bc 6659 b13e
00000050: 77d0 35be d056 393e db9a 21be 881b b8be
00000060: 3e93 85be 2961 da3e 1881 50bd c3f7 04be
00000070: ef79 d03e fe02 6e3d a3ad c8bc 2804 103e
00000080: 64dd 98b9 692f 9ebe 3810 523e b99a eabe
00000090: d594 50be 41af 9d3e ee98 623e 6d27 8d3e
000000a0: a594 b4be 2c23 123e 3e94 933e 7ff7 983e
000000b0: d3d6 b03e 78a1 a4be 0226 993e c272 f33e
000000c0: 29ca 83be 86b7 adbe 61a9 7b3e e351 f03e
000000d0: 4a75 9e3c 539d 8a3e fd12 82be 54a3 1bbe
000000e0: ac6a 88be 83aa a83e 2a05 9abe ec60 ba3d
000000f0: a65d d5be f018 d8be b5d4 bfbe 5506 c03d
00000100: e884 8bbe 83e6 6bbe 6b79 7c3e cb0e 563d
00000110: 0f16 a3be 51a8 843e 83a6 ad3e 8728 4a3e
00000120: 0a41 903e 1f91 8f3d 7dd7 4dbe a837 b23d
00000130: d062 27be 3dde c6bd 5199 96bc c47d c43e
00000140: 019f 1f3e 596b 6fbb 4523 95bd aecc 0d3e
00000150: 7526 c0be ebee dcbe 75a4 8e3d 5dfc c3be
00000160: f216 2fbe 3f71 153e 467a 52be f4eb 9f3e
00000170: 585f 8ebe 2ca2 4f3e 62d1 c1be d3cf 3d3e
00000180: 9a94 603e ab11 8bbd 560a 753e 4bff c4be
00000190: 9c10 04be 91e7 cbbe 07ca 173e df1b b9be
000001a0: 85af ec3d 6aa1 d83e 8875 e43c 973c 573d
000001b0: b315 c6be 25ec 33be ccb8 bfbe aad2 c03e
000001c0: f746 0abe 346c 2bbe 4afd d2be 9f24 a23e
000001d0: b346 debd bdfd a03e 024d bfbe f054 69bc
000001e0: 086c 60be 0e7a 6dbe ed27 0b3e 27fa a83e
000001f0: f9ce d9bc 8030 b7bd 043b d83e 80c9 2b3e
00000200: cecf cfbe 2e5f de3e 0db5 633d cfae af3e
00000210: f6c4 203d 8e59 4cbe 17d3 853e 3578 1f3d
00000220: c635 c1be 2bb0 a6be 5460 c03e 445e bdbe
00000230: 2276 fa3d 3aac 7c3d 679a 48be a454 28bc
00000240: 71a6 2f3e bd89 9b3e b497 cabe 893e 9abe
00000250: 89cb ba3e a0bd ec3d fd7a 373d 50f2 d43e
00000260: 006d c2be e9ef a73d 9957 d43e 29c9 90be
00000270: 16bb 5d3e a218 943e 38db 02be ee54 c2be

conv_in.bias f4 [32]
-0.060787003 -0.27151662 0.44205546 0.21077242 -0.28449896 0.39403704 0.17128162 0.08888403
-0.32887352 0.4323975 0.42860535 -0.42435294 0.26670212 -0.00021617586 0.22459377 -0.3841272
0.23006627 -0.33124298 -0.310024 -0.040326294 -0.07072373 0.23478667 0.23011604 -0.04713608
-0.42214653 0.16880694 0.37568095 -0.33913034 -0.13828404 0.26145068 0.11428405 -0.3552884
00000000: cbfb 78bd 3a04 8bbe 1855 e23e bad4 573e
00000010: d9a9 91be 39bf c93e 7364 2f3e d508 b63d
00000020: 1c62 a8be 3563 dd3e 2972 db3e ca44 d9be
00000030: 2e8d 883e 44ad 62b9 e9fb 653e 52ac c4be
00000040: 7e96 6b3e ae98 a9be 77bb 9ebe 2f2d 25bd
00000050: 9ad7 90bd eb6b 703e 8aa3 6b3e c311 41bd
00000060: 9723 d8be badb 2c3e 4159 c03e 7ea2 adbe
00000070: 559a 0dbe dddc 853e c20d ea3d 5ce8 b5be

A_blocks.0.intro_bn.weight f4 [32]
0.97462565 1.0138499 1.0086364 1.005044 0.99844205 0.98522305 1.0182061 0.9816128
1.013183 1.0101365 0.96802974 0.9908831 0.98219985 1.0357089 0.97292894 0.9678682
1.0081091 0.98240864 1.0191332 1.0068668 1.0143372 0.9910013 0.98133296 1.0145153
1.0531504 0.9777436 0.9928042 0.9681721 1.0111761 1.0040631 0.9715547 1.0235801
00000000: 1181 793f d5c5 813f ff1a 813f 48a5 803f
00000010: e699 7f3f 9437 7c3f 9454 823f fa4a 7b3f
00000020: fbaf 813f 274c 813f ccd0 773f 84aa 7d3f
00000030: 7371 7b3f 1c92 843f df11 793f 36c6 773f
00000040: b809 813f 227f 7b3f f572 823f 03e1 803f
00000050: cdd5 813f 43b2 7d3f a338 7b3f a3db 813f
00000060: a2cd 863f 684d 7a3f 6b28 7e3f 20da 773f
00000070: 386e 813f 2485 803f cfb7 783f ac04 833f

A_blocks.0.intro_bn.bias f4 [32]
0.013488072 -0.043809686 0.02400077 0.0018633052 0.015795464 0.023224741 0.041659944 -0.0040412815
0.0120144375 0.012377231 0.00031340093 0.029682225 -0.0008804347 0.003737433 -0.025858587 -0.0055850353
0.005047546 0.009250841 0.027382873 0.00028932205 0.019265672 -0.00048489077 -0.017982757 0.015377498
0.018534213 0.0018243243 -0.015519568 0.0035321843 0.03975446 0.03934872 -0.000279075 0.0009996104
00000000: 13fd 5c3c c971 33bd 439d c43c 263a f43a
00000010: 7d65 813c d041 be3c 9ea3 2a3d ba6c 84bb
00000020: 34d8 443c dfc9 4a3c f64f a439 2328 f33c
00000030: f9cc 66ba b9ef 743b 63d5 d3bc ac02 b7bb
00000040: e265 a53b d790 173c 0c52 e03c 26b0 9739
00000050: 0bd3 9d3c f038 feb9 9350 93bc e7f1 7b3c
00000060: 10d5 973c 2a1e ef3a c945 7ebc 387c 673b
00000070: 93d5 223d 202c 213d d050 92b9 5c05 833a

A_blocks.0.intro_bn.running_mean f4 [32]
0.14207734 -0.6006423 0.4944409 0.31629387 -0.41716424 0.5202445 0.17450446 0.1098824
-0.20642658 0.40619516 0.56456304 -0.47769877 0.019562427 0.0010168154 0.34972993 -0.353013
0.20379399 -0.46679434 -0.37032107 -0.003868421 -0.18280067 0.23279232 0.10518514 -0.020678312
-0.42881373 0.2602193 0.46345934 -0.45579416 -0.1103817 0.27591783 0.21555917 -0.40621468
00000000: b97c 113e b2c3 19bf 5c27 fd3e 45f1 a13e
00000010: 8d96 d5be be2e 053f 4cb1 323e 060a e13d
00000020: 7d61 53be d0f8 cf3e 3487 103f ef94 f4be
00000030: 6241 a03c aa46 853a cd0f b33e 1fbe b4be
00000040: 5faf 503e abff eebe b99a bdbe 5685 7dbb
00000050: 1930 3bbe 1c61 6e3e 4f6b d73d 9065 a9bc
00000060: 798d dbbe 773b 853e 8b4a ed3e da5d e9be
00000070: cd0f e2bd 1a45 8d3e 8bbb 5c3e 5ffb cfbe

A_blocks.0.intro_bn.running_var f4 [32]
0.061090983 0.16114286 0.0067247814 0.017763363 0.027872778 0.023269486 0.00025231254 0.0077301664
0.02776005 0.003305432 0.029743746 0.004517797 0.090835124 0.0004096657 0.025343355 0.0027972618
0.0021807088 0.028888332 0.005728434 0.0039443816 0.018935705 0.0048659137 0.023158228 0.0024767742
0.0023538603 0.013208475 0.0118035255 0.020784387 0.0012371433 0.001809472 0.015338815 0.0051535983
00000000: 8a3a 7a3d a202 253e 8e5b dc3b 7984 913c
00000010: 7455 e43c a69f be3c d148 8439 564d fd3b
00000020: 0b69 e33c f29f 583b 28a9 f33c 070a 943b
00000030: c407 ba3d 66c8 d639 de9c cf3c 4452 373b
00000040: 39ea 0e3b 39a7 ec3c 96b5 bb3b df3f 813b
00000050: 0d1f 9b3c 3e72 9f3b 53b6 bd3c 6051 223b
00000060: 3943 1a3b 5c68 583c 9363 413c 0544 aa3c
00000070: a427 a23a ce2b ed3a a74f 7b3c 84df a83b

A_blocks.0.C11.weight f4 [32, 32, 5]
-0.013092825 -0.006928857 -0.07602433 -0.044184577 -0.0058694505 0.03257544 0.021734 -0.030759256
0.044450223 0.056204 -0.04786422 -0.03499066 -0.04997399 0.054658506 -0.013723197 -0.0005252253
-0.00039154832 -0.07392935 -0.007971504 -0.057031203 0.063241675 -0.009431008 0.009770653 0.06842796
-0.026667586 -0.046629254 -0.05874625 -0.044826128 -0.031756166 -0.0072056786 0.07287376 -0.079630494
0.0021112103 -0.0043054055 0.07467463 -0.029756777 -0.03719447 0.0031039175 -0.04734754 0.03556248
-0.04366213 -0.063985065 -0.05976061 0.045846585 0.012615081 0.0873204 -0.041413553 0.08127973
0.04726301 -0.036649127 -0.039960347 -0.050387006 -0.0811313 0.036377218 -0.08328449 -0.047678117
-0.028113876 -0.05315356 0.0526933 -0.013612661 0.028584683 -0.038414557 0.02427935 -0.03179234
0.01113483 -0.023155706 0.043113142 0.017299242 0.06471598 -0.00029548994 0.0636682 0.03651491
-0.05651504 -0.015409395 0.029880118 0.008209711 0.05254579 -0.031466838 -0.0009081473 0.05013009
-0.07056346 0.07547126 -0.06643783 0.06093176 0.022946544 -0.054106835 -5.29963e-05 -0.05998251
0.034398887 -0.06483037 -0.057237245 -0.057284236 0.025780665 0.04166202 -0.06447766 -0.054012064
0.058339488 -0.0641677 0.031812083 0.057468392 -0.011619279 -0.046033483 0.06051477 0.024462773
0.06990854 0.050592113 -0.030545505 0.01060976 0.059430305 0.015454128 0.0691109 -0.051387668
-0.047005974 -0.038897637 0.08406202 -0.073394455 -0.012036659 0.005513166 -0.039519884 0.01831477
-0.06338004 0.043110274 0.026355872 -0.0017363776 -0.043655086 -0.04197488 0.04220024 -0.08761015
-0.058785323 0.05771396 0.030792464 0.056614492 0.006023938 -0.09170591 0.039508365 0.0070032664
-0.056496635 0.08167743 0.05435143 0.036230143 -0.014466575 0.06964349 -0.09013251 -0.011343997
-0.08851595 -0.07507544 0.0040854146 0.0548049 -0.096529044 -0.08360679 0.0236018 0.014307175
-0.04213687 0.029424643 0.011127283 0.092522144 -0.045401838 -0.016469479 0.095386274 0.01839842
-0.0066339783 -0.03647662 0.027086616 -0.046845414 -0.022869898 0.06476727 -0.039736867 0.036110826
-0.07963367 -0.07881906 0.010255858 0.05441946 -0.06440683 0.019735016 0.062248573 0.056209154
0.059711825 0.068784125 0.045291245 -0.043066442 -0.0721028 0.001923153 0.050944306 -0.08351789
0.036860004 -0.05081622 0.069524534 -0.046114042 0.09067017 -0.05986629 0.0511655 0.0011845204
0.050429054 0.027088242 0.02881582 0.058814835 -0.028706523 0.03548319 0.059998576 0.05354423
0.053908434 -0.062477563 0.048950367 -0.02715009 0.021039566 0.0066715186 -0.091457434 0.025436834
-0.02039858 0.022616345 0.01804918 0.009881004 -0.017779954 0.00030097866 0.01217569 -0.012692724
0.034521826 0.047992717 0.0026282307 -0.010728496 0.029734831 -0.005202092 -0.037896316 0.005988406
0.04951453 0.0018705009 0.021409977 0.10202626 -0.035564944 -0.03907152 0.001067205 -0.073426284
-0.031233903 -0.07227135 0.055525485 -0.06694653 0.028979883 -0.055158336 0.007728444 -0.02597384
0.07144784 0.06475133 0.025106145 -0.07779176 0.048067626 0.020222055 -0.04189405 -0.06553471
0.071965635 -0.0446313 0.013534075 -0.056688268 -0.08823628 -0.015547649 -0.009681074 -0.0097538335
00000000: 4a83 56bc 770b e3bb a5b2 9bbd e3fa 34bd
00000010: 8554 c0bb d36d 053d 800b b23c d6fa fbbc
00000020: 7011 363d 2a36 663d 460d 44bd 5e52 0fbd
00000030: 87b1 4cbd 99e1 5f3d 43d7 60bc 46af 09ba
00000040: ba48 cdb9 4568 97bd e99a 02bc 8d99 69bd
00000050: da84 813d 8484 1abc 1715 203c f523 8c3d
00000060: fb75 dabc 51fe 3ebd e89f 70bd 9a9b 37bd
00000070: c112 02bd 9d1d ecbb d63e 953d 5015 a3bd
00000080: 3b5c 0a3b 5c14 8dbb 03ef 983d 7cc4 f3bc
00000090: 3b59 18bd 186b 4b3b 7eef 41bd f7a9 113d
000000a0: 10d7 32bd 9a0a 83bd 8bc7 74bd a1c9 3b3d
000000b0: 7caf 4e3c 0ad5 b23d 42a1 29bd fd75 a63d
000000c0: dc96 413d 651d 16bd 76ad 23bd 9b62 4ebd
000000d0: 2b28 a6bd 4700 153d 0f91 aabd 214a 43bd
000000e0: 124f e6bc 8cb7 59bd eed4 573d a307 5fbc
000000f0: 6d2a ea3c 9558 1dbd 7de5 c63c af38 02bd
00000100: dd6e 363c 09b1 bdbc 6897 303d 24b7 8d3c
00000110: d089 843d fdeb 9ab9 7964 823d a990 153d
00000120: 517c 67bd b077 7cbc 26c7 f43c 0682 063c
00000130: 413a 573d 5fe3 00bd bc10 6eba 3655 4d3d
00000140: 9383 90bd ad90 9a3d 8f10 88bd 9593 793d
00000150: 64fa bb3c 219f 5dbd 5848 5eb8 38b0 75bd
00000160: d9e5 0c3d c9c5 84bd 9a71 6abd e0a2 6abd
00000170: f931 d33c cba5 2a3d dd0c 84bd c13b 5dbd
00000180: 63f5 6e3d 5b6a 83bd 634d 023d fa63 6b3d
00000190: ca5e 3ebc 9b8d 3cbd 56de 773d 2766 c83c
000001a0: 352c 8f3d ad39 4f3d 913a fabc 8fd4 2d3c
000001b0: 316d 733d 5033 7d3c 048a 8d3d e07b 52bd
000001c0: 5689 40bd 2153 1fbd b528 ac3d d54f 96bd
000001d0: 6835 45bc caa7 b43b 9adf 21bd db08 963c
000001e0: 65cd 81bd 6694 303d 45e8 d73c 2a97 e3ba
000001f0: adcf 32bd daed 2bbd 29da 2c3d f36c b3bd
00000200: e1c8 70bd 7965 6c3d 7a40 fc3c 99e4 673d
00000210: 7464 c53b 4fd0 bbbd 86d3 213d a87b e53b
00000220: 0469 67bd 7f46 a73d 9b9f 5e3d 0f66 143d
00000230: 3705 6dbc 3fa1 8e3d 6597 b8bd 2cdc 39bc
00000240: da47 b5bd 27c1 99bd f1de 853b 1a7b 603d
00000250: 05b1 c5bd 093a abbd 9058 c13c a468 6a3c
00000260: b697 2cbd f30b f13c 354f 363c 407c bd3d
00000270: 47f7 39bd 00eb 86bc e159 c33d 49b8 963c
00000280: d861 d9bb 8268 15bd c0e4 dd3c fae0 3fbd
00000290: a759 bbbc b4a4 843d 20c3 22bd f2e8 133d
000002a0: fa16 a3bd e36b a1bd 3008 283c f1e6 5e3d
000002b0: bae7 83bd 54ab a13c 5cf8 7e3d 923b 663d
000002c0: 6394 743d b1de 8c3d 5083 393d 7066 30bd
000002d0: a2aa 93bd 4e12 fc3a faaa 503d 6d0b abbd
000002e0: 84fa 163d ab24 50bd e162 8e3d 14e2 3cbd
000002f0: 48b1 b93d 5b36 75bd ea92 513d e941 9b3a
00000300: b28e 4e3d 29e8 dd3c 280f ec3c d3e7 703d
00000310: f129 ebbc d256 113d 11c1 753d 3251 5b3d
00000320: 17cf 5c3d 79e8 7fbd 2e80 483d de69 debc
00000330: 2b5b ac3c c19c da3b 094e bbbd e860 d03c
00000340: ec1a a7bc ea45 b93c e0db 933c efe3 213c
00000350: 44a7 91bc accc 9d39 8c7c 473c 25f5 4fbc
00000360: c266 0d3d 0394 443d 653e 2c3b 93c6 2fbc
00000370: 7696 f33c 5076 aabb 2b39 1bbd 643a c43b
00000380: bfcf 4a3d 982b f53a fa63 af3c 25f3 d03d
00000390: 8cac 11bd 7509 20bd 75e1 8b3a 8560 96bd
000003a0: 3ede ffbc 0003 94bd b16e 633d 431b 89bd
000003b0: 3867 ed3c b5ed 61bd e33e fd3b 17c7 d4bc
000003c0: 3f53 923d 589c 843d 67ab cd3c 4951 9fbd
000003d0: 8fe2 443d b9a8 a53c 1899 2bbd 1037 86bd
000003e0: b862 933d 4fcf 36bd 06be 5d3c f531 68bd
000003f0: 39b5 b4bd 91bb 7ebc 5e9d 1ebc 8bce 1fbc

A_blocks.0.C11.bias f4 [32]
-0.06925118 0.070122145 0.04374034 0.06585507 0.04528283 0.0067578307 -0.043862734 -0.019712979
0.07987086 -0.072908156 -0.0026231846 -0.060052827 -0.08641196 -0.035875913 -0.06481716 -0.09029912
0.00497575 0.042936586 0.0077435332 0.028450973 -0.096706755 0.02841674 0.0469559 0.03986206
-0.07135714 0.09851348 0.0452223 0.017838983 0.018949939 -0.055047955 0.07515884 0.022149485
00000000: 90d3 8dbd 339c 8f3d 1229 333d 06df 863d
00000010: 7d7a 393d cb70 dd3b 69a9 33bd 1d7d a1bc
00000020: 5593 a33d df50 95bd bce9 2bbb f4f9 75bd
00000030: c1f8 b0bd 9ff2 12bd dcbe 84bd bfee b8bd
00000040: 9e0b a33b 46de 2f3d 77bd fd3b 0412 e93c
00000050: 310e c6bd 39ca e83c d454 403d 6646 233d
00000060: b123 92bd 6fc1 c93d 053b 393d 0f23 923c
00000070: e73c 9b3c f779 61bd e1ec 993d d672 b53c

A_blocks.0.C12.weight f4 [32, 32, 5]
-0.06925915 0.00798566 -0.0016942861 0.037704922 0.06681486 -0.040626306 0.06968765 0.08165999
0.06292987 -0.025293041 0.058712296 -0.012915039 -0.055053048 0.062136445 -0.0468336 0.032848142
0.038609825 0.040056355 -0.01718067 -0.05227766 -0.038554277 0.10096114 0.066889524 0.012466366
-0.012966387 -0.0029222418 0.02082397 0.03920373 -0.051697023 0.052817896 -0.055818003 -0.06232126
0.027430013 0.080387644 0.115366995 0.014977491 0.06933517 0.055493765 0.031257465 0.02549373
0.07211569 -0.03358102 0.06655695 -0.030506585 0.020618778 0.06423976 0.0059854025 -0.02160453
0.06357999 -0.07152769 -0.040663127 3.9686696e-05 0.031837642 -0.03575934 0.065504536 -0.009790449
-0.014653551 0.02767913 -0.036509965 0.0357802 0.004328828 -0.0587159 -0.061703917 -0.067038715
-0.052263327 0.049406897 0.015438194 0.00785191 -0.032394867 0.030210776 -0.03359638 0.017708443
-0.056437362 -0.02924869 0.039179776 0.024084857 0.086550176 -0.024952395 -0.059353076 0.01509327
-0.03292394 0.02222304 0.057815492 -0.006613253 0.008106511 -0.013234009 -0.007975156 -0.031965382
-0.103463896 -0.029179657 0.025572585 -0.045360718 0.0006398952 -0.01916284 -0.017807066 -0.043655507
0.04493118 0.0014803575 -0.0789423 -0.030484624 0.013627006 -0.053852946 0.018517736 -0.058798652
-0.028248707 0.024459591 0.06588741 0.0069421297 -0.051162817 0.036169056 0.05309398 0.021024466
0.085095905 0.06417364 -0.051475283 0.0035652604 -0.08427679 -0.050406113 -0.0019096456 -0.011214697
0.022472529 0.07704567 -0.05545849 -0.029453326 -0.086317755 -0.07494486 0.052327786 0.096620336
0.0682768 -0.035868928 -0.032807473 -0.04111021 0.0072927745 0.0743487 -0.036037453 -0.011269328
0.01351605 -0.0054471237 0.05290035 0.004530509 0.045208924 0.03718141 0.051575802 0.048170574
-0.013253034 0.0352355 -0.07645422 -0.03987703 0.04364336 0.05669662 -0.03463762 0.038047303
-0.05836596 -0.06581931 -0.061048716 0.052120913 0.05026138 0.06033244 -0.020323811 0.021848885
0.058443993 0.07492107 0.07867173 0.0042561525 -0.014743134 -0.030477218 0.017360983 -0.078754686
-0.04573223 -0.008725987 -0.032584477 -0.04164328 -0.037068475 -0.013345239 0.009845424 -0.03412026
-0.025495013 -0.028759204 -0.006656691 0.06160032 -0.09284667 0.030813819 0.010990081 -0.0021667832
-0.08169917 -0.05750231 0.033924602 0.07722819 0.071378924 -0.019251661 -0.010878767 -0.055041034
-0.07536391 0.00603293 -0.025169497 0.028639102 -0.006619415 0.016625231 -0.051507078 -0.04717839
-0.027024277 0.024240956 -0.03389294 -0.030173743 0.03380364 -0.011404777 0.019133944 0.038694352
0.05847803 -0.017659953 -0.07377689 -0.03967301 0.01621552 -0.033720598 -0.06411046 -0.075295344
0.010169798 -0.07110692 0.043228626 -0.085266985 0.06395041 -0.039276645 -0.04346784 0.006648988
-0.06618836 -0.028625838 -0.039487556 0.039274685 -0.0284906 0.035488546 0.0565074 -0.06368025
0.026136203 -0.02919018 0.048487853 -0.037463695 -0.011948635 -0.015781933 -0.042042255 -0.003388295
-0.03411314 -0.007345141 -0.049093693 -0.06534074 0.039561626 -0.036891513 -0.06657451 0.0017729199
0.053537387 -0.07401124 -0.079105645 -0.028669951 0.072877765 0.026390841 0.0027387384 -0.048976533
00000000: bed7 8dbd 49d6 023c cf12 deba 7a70 1a3d
00000010: 3bd6 883d c567 26bd 66b8 8e3d 5a3d a73d
00000020: 60e1 803d 5a33 cfbc 4e7c 703d 9a99 53bc
00000030: 4e7f 61bd c982 7e3d 97d4 3fbd c68b 063d
00000040: 5625 1e3d 2212 243d 7abe 8cbc 1a21 56bd
00000050: 17eb 1dbd b7c4 ce3d 60fd 883d bb3f 4c3c
00000060: f870 54bc 1583 3fbb 0897 aa3c 1794 203d
00000070: 42c0 53bd 9457 583d 6ba1 64bd 9444 7fbd
00000080: e8b4 e03c 47a2 a43d 8845 ec3d 2764 753c
00000090: 99ff 8d3d 6e4d 633d d407 003d 3ad8 d03c
000000a0: 64b1 933d 408c 09bd 034f 883d f2e8 f9bc
000000b0: b6e8 a83c 2390 833d 3221 c43b fcfb b0bc
000000c0: 3a36 823d 1c7d 92bd 618e 26bd 4475 2638
000000d0: 3068 023d 6378 12bd 3e27 863d 1f68 20bc
000000e0: 7315 70bc 58bf e23c 798b 15bd 428e 123d
000000f0: d7d8 8d3b 1580 70bd 3fbd 7cbd 984b 89bd
00000100: 1212 56bd e35e 4a3d 7bf0 7c3c 4ca5 003c
00000110: 7bb0 04bd 977c f73c 5c9c 09bd 4c11 913c
00000120: dd2a 67bd f39a efbc f97a 203d 9b4d c53c
00000130: 3841 b13d f768 ccbc 361c 73bd c349 773c
00000140: 41db 06bd 180d b63c f0cf 6c3d fdb3 d8bb
00000150: 2cd1 043c 75d3 58bc 3baa 02bc 22ee 02bd
00000160: e1e4 d3bd 2d0a efbc 997d d13c 29cc 39bd
00000170: a4be 273a 63fb 9cbc 20e0 91bc 1ed0 32bd
00000180: c209 383d 8e08 c23a 80ac a1bd e4ba f9bc
00000190: ce43 5f3c e894 5cbd 82b2 973c dbd6 70bd
000001a0: d569 e7bc 7b5f c83c faef 863d ce7a e33b
000001b0: 1a90 51bd 0126 143d 1379 593d 803b ac3c
000001c0: c346 ae3d 786d 833d bfd7 52bd 25a7 693b
000001d0: 4f99 acbd a476 4ebd 134d faba d9bd 37bc
000001e0: 4f18 b83c 1fca 9d3d 7128 63bd 1a48 f1bc
000001f0: 5dc7 b0bd b17c 99bd a955 563d e2e0 c53d
00000200: b5d4 8b3d 4ceb 12bd 2161 06bd 2e63 28bd
00000210: 3af8 ee3b 2244 983d 029c 13bd fda2 38bc
00000220: 6c72 5d3c c97d b2bb 0aae 583d aa74 943b
00000230: fe2c 393d 894b 183d 2641 533d 824e 453d
00000240: 4123 59bc 1a53 103d 0894 9cbd 1956 23bd
00000250: 61c3 323d b73a 683d 2de0 0dbd 7dd7 1b3d
00000260: 2511 6fbd 46cc 86bd 380e 7abd bd7c 553d
00000270: e0de 4d3d 261f 773d 1f7e a6bc 6ffc b23c
00000280: f862 6f3d 3870 993d a51e a13d 3277 8b3b
00000290: 308d 71bc 5cab f9bc 9f38 8e3c 234a a1bd
000002a0: b851 3bbd 71f7 0ebc 4d77 05bd 2592 2abd
000002b0: 1dd5 17bd fda5 5abc b44e 213c b0c1 0bbd
000002c0: ebda d0bc 6c98 ebbc 5f20 dabb 9e50 7c3d
000002d0: 6526 bebd 436d fc3c be0f 343c 9700 0ebb
000002e0: e551 a7bd 8b87 6bbd 86f4 0a3d d029 9e3d
000002f0: 1d2f 923d a9b5 9dbc db3c 32bc b572 61bd
00000300: 6558 9abd e3af c53b 4330 cebc 8d9c ea3c
00000310: ade7 d8bb a331 883c 16f9 52bd 213e 41bd
00000320: 0462 ddbc f894 c63c 53d3 0abd ed2e f7bc
00000330: b075 0a3d 1adb 3abc cabe 9c3c f87d 1e3d
00000340: a986 6f3d 9bab 90bc 5718 97bd 2b80 22bd
00000350: 69d6 843c 9c1e 0abd 584c 83bd 7234 9abd
00000360: 399f 263c 81a0 91bd 8010 313d 75a0 aebd
00000370: 6ff8 823d 8ce0 20bd 550b 32bd c1df d93b
00000380: c38d 87bd bc80 eabc b4bd 21bd 7ede 203d
00000390: 1e65 e9bc 705c 113d 4e74 673d ca6a 82bd
000003a0: 971b d63c 3f20 efbc 339b 463d 8873 19bd
000003b0: 35c4 43bc 1d49 81bc 8034 2cbd 280e 5ebb
000003c0: 38ba 0bbd 82af f0bb 7816 49bd 5ed1 85bd
000003d0: 5f0b 223d 8e1b 17bd 3758 88bd 5261 e83a
000003e0: 054a 5b3d 3493 97bd 2402 a2bd 3fdd eabc
000003f0: f040 953d 9b31 d83c 687c 333b 9e9b 48bd

A_blocks.0.C12.bias f4 [32]
0.11614091 -0.032897115 -0.0602016 -0.068917714 -0.02666907 -0.06340854 0.05784393 0.06473072
-0.0069430918 0.05517476 0.0016129246 0.010610753 0.07299311 0.065199584 0.098424815 0.08631797
0.008635151 -0.07070522 0.09391435 0.043872204 -0.017521767 0.0018964958 -0.0505309 0.06775033
0.020603422 0.012494918 0.080465876 0.09171394 0.09242869 0.0247556 -0.026347982 0.09316917
00000000: 49db ed3d 20bf 06bd f495 76bd bb24 8dbd
00000010: 1879 dabc 56dc 81bd c2ed 6c3d 8a91 843d
00000020: e082 e3bb eefe 613d c568 d33a b9d8 2d3c
00000030: 697d 953d 5c87 853d f392 c93d 7ac7 b03d
00000040: 737a 0d3c e6cd 90bd 2b56 c03d 57b3 333d
00000050: cf89 8fbc d793 f83a 7df9 4ebd afc0 8a3d
00000060: 82c8 a83c 7cb7 4c3c 4bcb a43d 85d4 bb3d
00000070: 414b bd3d 42cc ca3c b9d7 d7bc 7acf be3d

A_blocks.1.intro_bn.weight f4 [32]
0.97633547 1.0171697 0.9889801 0.9604458 1.0205091 0.9822693 0.9891887 1.0100917
1.005541 1.0103008 0.9829119 1.0060717 1.0326706 1.0177095 1.0135114 0.976499
1.0230142 0.99018705 0.9794079 1.0266285 0.9966033 0.9733881 0.9801712 0.9559981
1.0439332 0.9787661 0.966985 0.9807059 0.97405696 1.0184761 1.0095958 1.017557
00000000: 1ff1 793f 9e32 823f cd2d 7d3f c7df 753f
00000010: 0ba0 823f 0076 7b3f 783b 7d3f af4a 813f
00000020: 91b5 803f 8951 813f 1da0 7b3f f5c6 803f
00000030: 8d2e 843f 4e44 823f beba 813f d7fb 793f
00000040: 21f2 823f e67c 7d3f 7aba 7a3f 9068 833f
00000050: 6521 7f3f f62f 793f 80ec 7a3f 4bbc 743f
00000060: 9a9f 853f 6a90 7a3f 548c 773f 8b0f 7b3f
00000070: cc5b 793f 6d5d 823f 6f3a 813f 4f3f 823f

A_blocks.1.intro_bn.bias f4 [32]
-0.004814456 0.010952254 0.010301792 -0.004363683 -0.01776708 -0.018815365 0.047397893 0.03031484
0.06566921 -0.02126883 0.0029553648 -0.0019176492 -0.0002678135 0.0052219615 0.015020158 0.027239071
0.015210185 0.016118972 0.038113527 0.018340977 0.019669492 0.022745837 0.00015044863 0.05679057
0.03252089 -0.007959169 0.028520947 -0.025582582 -0.029569464 -0.003780681 -0.020315522 0.012310104
00000000: 96c2 9dbb 1571 333c d9c8 283c 3afd 8ebb
00000010: 448c 91bc ae22 9abc 4b24 423d d456 f83c
00000020: 947d 863d f83b aebc cbae 413b a159 fbba
00000030: 5269 8cb9 fd1c ab3b 1c17 763c 7924 df3c
00000040: 2434 793c ef0b 843c ee1c 1c3d d13f 963c
00000050: ea21 a13c 7a55 ba3c bfc1 1d39 3b9d 683d
00000060: a034 053d 2d67 02bc c3a4 e93c 9092 d1bc
00000070: a93b f2bc 4dc5 77bb bd6c a6bc 52b0 493c

A_blocks.1.intro_bn.running_mean f4 [32]
0.8962126 0.33467224 0.5966329 0.4298514 0.14743756 0.97901535 1.2549604 0.32361197
0.5014475 0.61387116 0.24718623 1.0397027 0.2921722 0.5812752 0.477402 0.58373004
0.6102767 0.59107643 1.060116 0.22413035 0.8115652 0.44569018 0.6278566 1.0725181
0.2833286 0.6907308 0.5088931 0.7011686 0.6519932 1.0858562 0.11896445 0.2877421
00000000: 306e 653f 295a ab3e efbc 183f 7c15 dc3e
00000010: dff9 163e c0a0 7a3f 8ba2 a03f 78b0 a53e
00000020: dd5e 003f a926 1d3f 631e 7d3e fa14 853f
00000030: 9897 953e 74ce 143f 096e f43e 556f 153f
00000040: 183b 1c3f c950 173f e2b1 873f 6d82 653e
00000050: bdc2 4f3f 8131 e43e 36bb 203f 4648 893f
00000060: 7210 913e bcd3 303f d146 023f c97f 333f
00000070: 07e9 263f 56fd 8a3f a2a3 f33d ef52 933e

A_blocks.1.intro_bn.running_var f4 [32]
2.068671 0.10406089 1.1041844 0.6234779 0.07881985 2.3700767 3.9278917 0.35486883
1.0120409 1.7050865 0.29450703 0.7686832 0.38014898 1.1626076 0.7181176 1.0924877
0.44831777 0.29275334 0.75762093 0.50446695 0.50742954 1.8697442 0.3257698 3.4930494
0.65273905 1.4402058 0.8540716 0.4307288 1.1824946 1.0952518 0.10102046 0.49726638
00000000: 1b65 0440 e01d d53d ea55 8d3f 3f9c 1f3f
00000010: 4d6c a13d 56af 1740 9462 7b40 5eb1 b53e
00000020: 8e8a 813f 4640 da3f a0c9 963e 6cc8 443f
00000030: e3a2 c23e 53d0 943f 8ed6 373f a3d6 8b3f
00000040: e889 e53e c4e3 953e 72f3 413f bf24 013f
00000050: e7e6 013f c753 ef3f 4dcb a63e 1f8e 5f40
00000060: e819 273f aa58 b83f 70a4 5a3f 7c88 dc3e
00000070: fc5b 973f 3631 8c3f d1e3 ce3d b399 fe3e

A_blocks.1.C11.weight f4 [32, 32, 5]
-0.07794147 -0.075147465 -0.05357597 -0.07021252 -0.022456815 -0.01481305 0.098826796 0.04324412
0.067983896 -0.041556228 0.035707243 -0.0051724887 0.08802487 -0.08503777 -0.047936853 0.0156374
-0.04928408 -0.030849744 0.022306668 0.017460411 0.03253533 0.02825891 0.114413686 0.056008574
0.061019387 0.023888977 0.021740789 0.021632846 -0.050437182 -0.05361664 -0.009349252 -0.0627195
-0.004023924 -0.032605164 0.06843657 -0.007957467 -0.036362346 -0.057401266 0.07157801 0.045482386
-0.0705334 -0.026852299 0.02951797 0.07870689 0.020263001 -0.039589543 0.03167738 -0.1062596
-0.05474077 0.021589195 -0.011861722 0.031780902 0.01800118 -0.015732737 0.027556928 0.041242428
-0.046236303 0.09210148 0.060857944 0.017494809 -0.019166939 0.051264342 0.0796753 0.08663701
-0.004668695 0.03418547 -0.08819333 0.062162075 0.07983663 -0.008968126 -0.044430565 0.057181157
-0.05720107 -0.023966908 0.002743267 -0.0993744 -0.07221172 -0.069504164 -0.053255647 0.06821748
-0.08733424 0.01190298 0.05207614 -0.009513221 0.036960322 -0.021381233 -0.03235481 0.122250944
0.046865016 -0.025912778 0.014527341 0.061405078 0.09153264 0.07356196 -0.013818533 0.047367085
0.06693415 -0.06161568 0.032688312 0.028250631 0.030556265 0.042799957 0.11516702 0.03760092
-0.032781444 -0.014194351 0.03706575 -0.03276518 0.03132254 -0.042491417 0.07268236 -0.031462375
-0.05576257 -0.019451752 0.050158367 -0.07087892 -0.036178462 0.017061241 0.01421612 -0.0074975565
0.0006262884 -0.065572485 0.0045054913 0.07770924 0.013869992 -0.063075356 -0.061900474 -0.07242454
-0.015322431 0.04418764 -0.0576992 0.017107815 0.014640511 -0.048286453 0.07531864 0.0036270956
0.025335124 0.0505383 0.014180474 -0.013553158 -0.07949281 -0.083489984 -0.03109874 -0.024290496
-0.05378475 0.028956948 -0.050062057 -0.08170046 0.04077213 0.0776372 0.018216886 -0.071651086
-0.05728687 0.024987582 0.012301699 0.008121658 -0.007738574 -0.10458877 -0.061873045 -0.06354954
-0.041183215 -0.042975303 0.030996002 0.0048003634 0.08493816 0.05613939 -0.071656816 -0.025617735
-0.0032022032 -0.025410945 0.07896481 -0.016896814 0.006490253 0.049557272 0.012319334 0.03448758
-0.025610138 -0.03273605 0.009745531 0.094794154 0.061920546 -0.09136557 -0.09638336 0.018084757
0.017396703 0.02823429 0.056310408 -0.04858218 -0.05767839 0.07326949 0.052866433 0.0818788
-0.057396453 -0.04353671 0.017986737 -0.044711046 0.10042476 0.04711236 0.061258957 0.066934116
-0.030004418 -0.04726218 -0.074828565 -0.0044686804 0.063368045 -0.040588696 0.05549499 0.07730556
0.039848544 0.03635975 -0.068480104 -0.05409255 -0.018352645 0.038898792 -0.056956485 0.041234046
-0.055089254 -0.059733007 0.050876755 -0.06474714 0.06273072 0.05603027 0.05127972 -0.051111683
-0.013013077 0.08457115 0.005106466 0.093362644 0.080756195 -0.047479033 -0.07210127 -0.063477054
-0.027214894 0.016526353 -0.09812692 -0.013110569 0.061468735 -0.0030673638 -0.02085679 -0.013216458
0.08050244 0.05679692 -0.079276025 0.017837431 -0.12139378 -0.025222227 -0.0064482796 0.025400382
-0.069816224 -0.026970997 -0.045722846 -0.012482538 -0.033492126 -0.040346123 0.05609977 -0.023099467
00000000: c79f 9fbd eae6 99bd 7a72 5bbd 95cb 8fbd
00000010: 5bf7 b7bc 6fb2 72bc b465 ca3d bf20 313d
00000020: 243b 8b3d dd36 2abd c241 123d fb7d a9bb
00000030: 6246 b43d 4828 aebd 6f59 44bd 011a 803c
00000040: 1ade 49bd 9ab8 fcbc 79bc b63c 2309 8f3c
00000050: c443 053d 3b7f e73c b951 ea3d 3f69 653d
00000060: 77ef 793d d1b2 c33c bd19 b23c 5e37 b13c
00000070: 3897 4ebd 1f9d 5bbd 9b2d 19bc 1573 80bd
00000080: 1fdb 83bb fe8c 05bd 7928 8c3d 0960 02bc
00000090: aff0 14bd 971d 6bbd 7e97 923d bd4b 3a3d
000000a0: d173 90bd 5af9 dbbc abcf f13c 1431 a13d
000000b0: 98fe a53c a528 22bd 24c0 013d a29e d9bd
000000c0: dc37 60bd d3db b03c ab57 42bc b12c 023d
000000d0: 3677 933c f1e1 80bc 11bf e13c d2ed 283d
000000e0: 4762 3dbd b39f bc3d 2e46 793d 4651 8f3c
000000f0: fc03 9dbc 8ffa 513d ce2c a33d bf6e b13d
00000100: dafb 98bb 1006 0c3d b49e b4bd a99d 7e3d
00000110: 6381 a33d 0cef 12bc d3fc 35bd ca36 6a3d
00000120: ab4b 6abd 4056 c4bc 62c8 333b ce84 cbbd
00000130: bde3 93bd 3358 8ebd 9822 5abd 9bb5 8b3d
00000140: 4bdc b2bd b704 433c ca4d 553d 57dd 1bbc
00000150: b563 173d b227 afbc 7a86 04bd b45e fa3d
00000160: 88f5 3f3d 0947 d4bc 1604 6e3c e483 7b3d
00000170: 7775 bb3d a7a7 963d 2167 62bc fd03 423d
00000180: c614 893d b960 7cbd 2ee4 053d de6d e73c
00000190: 2251 fa3c 024f 2f3d b0dc eb3d 6c03 1a3d
000001a0: d645 06bd 6c8f 68bc 42d2 173d c834 06bd
000001b0: 104c 003d 7b0b 2ebd 7dda 943d b1de 00bd
000001c0: 4b67 64bd 4859 9fbc dc72 4d3d f828 91bd
000001d0: de2f 14bd 04c4 8b3c bbea 683c 10ae f5bb
000001e0: 812d 243a de4a 86bd cda2 933b 0626 9f3d
000001f0: f73e 633c a72d 81bd 5a8b 7dbd 5153 94bd
00000200: ef0a 7bbc 19fe 343d ff55 6cbd b025 8c3c
00000210: c1de 6f3c 04c8 45bd a940 9a3d 91b4 6d3b
00000220: 9b8b cf3c 4001 4f3d 3855 683c 110e 5ebc
00000230: 20cd a2bd ccfc aabd c9c2 febc ddfc c6bc
00000240: 664d 5cbd 1f37 ed3c df0d 4dbd 9252 a7bd
00000250: ad00 273d 4100 9f3d 943b 953c cebd 92bd
00000260: a3a5 6abd c2b2 cc3c 118d 493c b410 053c
00000270: dd93 fdbb a332 d6bd 976e 7dbd 4326 82bd
00000280: bbaf 28bd df06 30bd 54eb fd3c 5e4c 9d3b
00000290: 0ff4 ad3d 6bf2 653d cfc0 92bd 49dc d1bc
000002a0: 0edc 51bb 9d2a d0bc 4db8 a13d 306b 8abc
000002b0: 30ac d43b 91fc 4a3d 08d7 493c d942 0d3d
000002c0: 5acc d1bc 3d16 06bd b8ab 1f3c 7023 c23d
000002d0: 66a0 7d3d df1d bbbd a464 c5bd 7c26 943c
000002e0: 8883 8e3c 994b e73c bea5 663d 1cfe 46bd
000002f0: 2d40 6cbd 500e 963d 798a 583d 13b0 a73d
00000300: 8b18 6bbd 8d53 32bd ec58 933c ee22 37bd
00000310: 7fab cd3d e4f8 403d acea 7a3d c114 893d
00000320: d3cb f5bc fd95 41bd b83f 99bd 026e 92bb
00000330: 1bc7 813d 5540 26bd b74e 633d 6152 9e3d
00000340: 3a38 233d f6ed 143d 4c3f 8cbd 2690 5dbd
00000350: 4958 96bc 5754 1f3d 344b 69bd 08e5 283d
00000360: 45a5 61bd 99aa 74bd 2564 503d 269a 84bd
00000370: f778 803d ff7f 653d af0a 523d 7c5a 51bd
00000380: cd34 55bc a433 ad3d 2454 a73b ea34 bf3d
00000390: 8163 a53d 6079 42bd d5a9 93bd 4200 82bd
000003a0: c5f1 debc 4662 873c c4f6 c8bd b6cd 56bc
000003b0: a4c6 7b3d d305 49bb dcdb aabc d889 58bc
000003c0: 77de a43d e3a3 683d 785b a2bd ce1f 923c
000003d0: 4d9d f8bd d89e cebc 174c d3bb 7614 d03c
000003e0: cffb 8ebd 48f2 dcbc e147 3bbd 8f83 4cbc
000003f0: 0a2f 09bd fa41 25bd dfc8 653d 183b bdbc

A_blocks.1.C11.bias f4 [32]
0.070666395 0.048325423 -0.020112615 0.013540495 -0.04743357 0.041898143 0.07355907 0.09157827
-0.0051036673 -0.052181017 -0.061519645 0.06089522 -0.04182303 0.079543106 -0.031362534 -0.06829751
0.046712793 -0.010441614 0.046806164 0.04895102 0.05102765 0.042906098 -0.08432778 0.015868962
0.0713632 0.019746112 0.062361002 0.086446844 0.063945405 -0.058337886 -0.045468584 -0.006886923
00000000: 8bb9 903d e1f0 453d 36c3 a4bc f4d8 5d3c
00000010: b449 42bd 639d 2b3d 23a6 963d 638d bb3d
00000020: aa3c a7bb c3bb 55bd 06fc 7bbd 446d 793d
00000030: a04e 2bbd 7fe7 a23d 0076 00bd 91df 8bbd
00000040: ea55 3f3d 4e13 2bbc d2b7 3f3d dd80 483d
00000050: 5e02 513d 4ebe 2f3d 0bb4 acbd a0ff 813c
00000060: df26 923d 99c2 a13c 406e 7f3d 0b0b b13d
00000070: cff5 823d b5f3 6ebd 443d 3abd b3ab e1bb

A_blocks.1.C12.weight f4 [32, 32, 5]
0.06562276 0.06021571 -0.0042850478 -0.060405314 0.05478013 -0.06903665 -0.037437536 -0.0101991715
0.06558908 -0.006957017 0.09505042 0.07860536 0.022207415 -0.002892297 0.09405142 0.07737685
0.06662812 -0.020336501 0.05790714 0.028694378 -0.058021285 0.08175977 -0.026362978 0.018455353
-0.022895662 0.0025314963 0.08467416 -0.102899276 -0.077695556 -0.0489346 0.06435807 -0.022304842
-0.047091313 -0.051109962 0.010892259 -0.07265431 0.06338197 0.041182287 0.09771306 0.06542214
0.0073157097 0.072911374 0.036368523 5.0706905e-05 0.08216313 0.06997467 0.04529048 -0.016036807
-0.058449563 -0.064490795 -0.049505956 0.054406878 -0.06663811 0.07661227 0.06969324 0.054788183
0.017842695 -0.0038416735 -0.037839167 0.055066194 0.038256597 0.06639779 -0.051978264 -0.09001181
-0.05706004 0.0055419523 -0.0015450346 -0.019190907 0.016489627 -0.044183344 0.022436552 0.031777583
-0.009690385 0.08136448 -0.069562204 0.059005942 0.011895517 0.012062064 0.03415818 0.054113828
0.11860177 -0.036458794 0.009648854 0.083678275 -0.041436467 0.004298823 -0.06936997 -0.023374042
-0.04556779 0.032819506 0.021679914 0.02212361 0.070649065 0.06451319 0.022042418 0.026194422
0.0023455995 -0.055308484 -0.060570132 -0.0011387157 -0.07040557 -0.002815185 0.0891901 -0.07527769
-0.09398847 -0.002835792 -0.002259558 -0.06793388 -0.016868118 -0.09045628 -0.0019322035 0.040270083
-0.083139665 -0.056366723 -0.052241948 -0.047782138 0.007730456 0.08246498 0.017492695 -0.021580597
0.0031212494 0.10861734 -0.023213625 0.10923688 0.08323277 0.0750639 -0.042248834 0.09202493
-0.027968576 -0.025577914 0.10702108 0.046071272 0.058394115 0.00094774633 -0.035118647 0.0073442557
-0.0050659883 -0.028947655 0.013521703 -0.02669704 0.007928146 -0.05843554 -0.03577745 -0.039339885
0.019694164 0.014715567 0.008391678 0.015402565 0.0030608724 -0.044003945 0.073752046 -0.021106705
0.07339204 -0.03886969 -0.022127504 0.07555053 -0.015098512 -0.052431177 0.0343747 -0.0239829
0.088173844 -0.011095273 0.08120725 -0.01785166 0.012341241 0.0095210755 0.020982822 -0.088519745
0.041732486 -0.018628448 0.055783834 -0.01703581 -0.08442439 -0.040211007 -0.09921102 -0.021124234
0.009422106 -0.027692387 0.06661104 0.026875028 0.027756078 0.036440358 -0.030923562 0.02342615
0.10013011 -0.046265468 0.005649157 0.06026425 -0.055117343 -0.045582987 0.023416268 -0.013252016
0.03520317 -0.017628456 0.07829372 0.028175404 -0.060864225 0.05671659 0.0076526995 -0.08591047
0.07361326 -0.019748367 0.0004328951 -0.04125657 0.059796058 0.013527026 0.11136502 0.007038871
0.07313071 0.06399367 -0.07484943 -0.057989217 0.01845923 -0.061968956 -0.040123917 -0.010978677
-0.070113145 0.057154782 0.0014747768 0.04461095 -0.021032423 -0.088328846 0.07217603 0.074976675
-0.007393084 0.05670651 0.005233422 0.018450057 -0.04069398 -0.003798256 0.004025025 0.02709895
0.015737394 0.017333418 -0.0011503634 -0.035145424 -0.012303759 0.0064158896 -0.06333734 0.01435365
-0.018595569 -0.074013405 -0.08874546 0.023322457 0.02248627 0.020711288 -0.0027952401 0.04952019
-0.05679051 -0.04572887 0.06454089 -0.043757774 0.03993855 0.04536522 -0.08510056 0.013473499
00000000: 3a65 863d c0a4 763d 9669 8cbb 906b 77bd
00000010: 2161 603d 1663 8dbd 1a58 19bd 6d1a 27bc
00000020: 9153 863d b0f7 e3bb cba9 c23d d9fb a03d
00000030: 53ec b53c b18c 3dbb 089e c03d c177 9e3d
00000040: 5374 883d bc98 a6bc 0a30 6d3d 7910 eb3c
00000050: baa7 6dbd ab71 a73d 2cf7 d7bc ae2f 973c
00000060: af8f bbbc 76e7 253b a569 ad3d dbbc d2bd
00000070: d91e 9fbd a66f 48bd 2ace 833d a5b8 b6bc
00000080: d2e2 40bd ae58 51bd 7275 323c c8cb 94bd
00000090: 68ce 813d c2ae 283d c91d c83d 0bfc 853d
000000a0: 9fb8 ef3b 8f52 953d 29f7 143d 20ae 5438
000000b0: 2545 a83d e14e 8f3d 8382 393d 9f5f 83bc
000000c0: cf68 6fbd c013 84bd c2c6 4abd bfd9 5e3d
000000d0: 9079 88bd e5e6 9c3d 54bb 8e3d 9369 603d
000000e0: d82a 923c 96c4 7bbb 3efd 1abd 178d 613d
000000f0: f3b2 1c3d 91fb 873d 29e7 54bd 1d58 b8bd
00000100: cab7 69bd 4499 b53b c282 caba 4036 9dbc
00000110: 4115 873c 98f9 34bd dccc b73c 3629 023d
00000120: 6cc4 1ebc 6ca2 a63d a176 8ebd 37b0 713d
00000130: 6ae5 423c f79f 453c 73e9 0b3d 76a6 5d3d
00000140: 7ce5 f23d d155 15bd 3a16 1e3c 845f ab3d
00000150: 49b9 29bd 24dd 8c3b d811 8ebd eb7a bfbc
00000160: 4aa5 3abd bf6d 063d 139a b13c 933c b53c
00000170: 75b0 903d 7e1f 843d 4d92 b43c af95 d63c
00000180: a1b8 193b 268b 62bd 6318 78bd f540 95ba
00000190: cc30 90bd f87e 38bb 4da9 b63d 312b 9abd
000001a0: 077d c0bd b2d8 39bb 1815 14bb eb20 8bbd
000001b0: 022f 8abc 2441 b9bd fe41 fdba 3ef2 243d
000001c0: 2145 aabd cbe0 66bd a7fb 55bd 34b7 43bd
000001d0: c44f fd3b 66e3 a83d d74c 8f3c cbc9 b0bc
000001e0: e08d 4c3b c572 de3d 802a bebc 96b7 df3d
000001f0: f175 aa3d 1abb 993d 1d0d 2dbd 9177 bc3d
00000200: 5b1e e5bc c688 d1bc de2d db3d 3bb5 3c3d
00000210: ab2e 6f3d 2e72 783a 92d8 0fbd 15a8 f03b
00000220: 9700 a6bb a223 edbc 228a 5d3c c0b3 dabc
00000230: 0ee5 013c 1b5a 6fbd 608b 12bd dc22 21bd
00000240: a855 a13c 9019 713c 407d 093c 0a5b 7c3c
00000250: eb98 483b 7b3d 34bd 500b 973d f8e7 acbc
00000260: 914e 963d d335 1fbd bd44 b5bc 3cba 9a3d
00000270: c05f 77bc 13c2 56bd 7ccc 0c3d c977 c4bc
00000280: 7d94 b43d f3c8 35bc fd4f a63d a53d 92bc
00000290: eb32 4a3c 49fe 1b3c 2be4 ab3c d749 b5bd
000002a0: afef 2a3d b09a 98bc 977d 643d af8e 8bbc
000002b0: b2e6 acbd 4cb4 24bd 262f cbbd bb0c adbc
000002c0: 2d5f 1a3c 25db e2bc 5e6b 883d 0529 dc3c
000002d0: b760 e33c 7c42 153d 6953 fdbc 33e8 bf3c
000002e0: 0411 cd3d dc80 3dbd 901c b93b a5d7 763d
000002f0: b9c2 61bd 3ab5 3abd 79d3 bf3c fc1e 59bc
00000300: 3331 103d 8d69 90bc 7558 a03d 1bd0 e63c
00000310: c44c 79bd a84f 683d 7fc3 fa3b d4f1 afbd
00000320: 8dc2 963d 54c7 a1bc 32f6 e239 a6fc 28bd
00000330: b6ec 743d 76a0 5d3c 5813 e43d 54a6 e63b
00000340: 8ec5 953d 1d0f 833d a84a 99bd 1a86 6dbd
00000350: d037 973c 29d3 7dbd fa58 24bd e9df 33bc
00000360: 7b97 8fbd 221b 6a3d 4c4d c13a f9b9 363d
00000370: 304c acbc c1e5 b4bd 07d1 933d 5f8d 993d
00000380: af41 f2bb 1645 683d 207d ab3b 9324 973c
00000390: bbae 26bd 29ec 78bb 5be4 833b 9efe dd3c
000003a0: b5eb 803c d0fe 8d3c cac7 96ba a6f4 0fbd
000003b0: b595 49bc 623c d23b 02b7 81bd 922b 6b3c
000003c0: bc55 98bc 5794 97bd 2ec0 b5bd bd0e bf3c
000003d0: 2035 b83c b8aa a93c 5930 37bb afd5 4a3d
000003e0: 2a9d 68bd 324e 3bbd 042e 843d 5a3b 33bd
000003f0: 9b96 233d e2d0 393d 3449 aebd f3bf 5c3c

A_blocks.1.C12.bias f4 [32]
-0.028298799 0.0659548 -0.0489488 -0.043512654 0.013669008 0.029881828 0.08529451 -0.010161035
0.05813905 -0.034231674 0.053272434 -0.016582076 -0.044403292 -0.05296414 0.044030815 0.074553825
-0.047831014 0.056972653 -0.008277443 0.04774427 0.04322776 0.03583503 -0.021577448 -0.03256072
0.061872024 0.061902758 -0.048456572 -0.06559091 -0.012191242 -0.033060223 -0.0037736348 0.09292194
00000000: e2d2 e7bc 4f13 873d 897e 48bd 533a 32bd
00000010: faf3 5f3c bcca f43c e3ae ae3d 787a 26bc
00000020: 3623 6e3d 8336 0cbd 3234 5a3d 22d7 87bc
00000030: 3ae0 35bd edf0 58bd a859 343d adaf 983d
00000040: 74ea 43bd 285c 693d 1d9e 07bc 7f8f 433d
00000050: 970f 313d c1c7 123d 30c3 b0bc 645e 05bd
00000060: 856d 7d3d bf8d 7d3d 667a 46bd 8754 86bd
00000070: c6bd 47bc 286a 07bd 164f 77bb dc4d be3d

A_blocks.2.intro_bn.weight f4 [32]
0.96992284 0.9530715 0.991165 1.0120261 1.0182486 1.0274594 0.9937165 1.0554374
0.9886767 0.957563 0.9856421 1.0266182 1.0252839 1.0336677 0.97673655 0.9797925
1.0011616 0.99436164 0.9846559 1.0135323 1.0034367 0.97669524 1.0183564 1.0024565
0.9923891 0.9761492 0.98388726 1.0305394 1.0278373 1.0034701 1.0276974 0.9656938
00000000: dd4c 783f 7efc 733f fdbc 7d3f 128a 813f
00000010: f855 823f ca83 833f 3464 7e3f 9318 873f
00000020: eb19 7d3f d922 753f 0a53 7c3f 3a68 833f
00000030: 813c 833f 394f 843f 680b 7a3f aed3 7a3f
00000040: 1026 803f 7c8e 7e3f 6912 7c3f 6dbb 813f
00000050: 9d70 803f b308 7a3f 8159 823f 7f50 803f
00000060: 360d 7e3f eae4 793f 09e0 7b3f b7e8 833f
00000070: 2c90 833f b571 803f 978b 833f b537 773f

A_blocks.2.intro_bn.bias f4 [32]
-0.039153256 -0.035736218 -0.0183938 -0.018993702 0.013208669 -0.010581703 0.025740532 0.02673115
0.0022542377 0.018499214 -0.050028443 0.013023321 0.023652337 0.003974165 -0.0015806489 -0.030267173
0.023013672 0.019679781 0.0011143535 0.022658588 0.010859496 0.0014842907 -0.026814507 0.03103893
0.0006249206 -0.04469929 -0.010668397 -0.027349962 0.02385802 0.0007805174 -0.01688662 -0.010467858
00000000: 2a5f 20bd 2460 12bd 98ae 96bc ae98 9bbc
00000010: 2c69 583c e15e 2dbc cfdd d23c 49fb da3c
00000020: d5bb 133b aa8b 973c a0ea 4cbd c45f 553c
00000030: 8cc2 c13c b639 823b c72d cfba ddf2 f7bc
00000040: 2b87 bc3c 7e37 a13c 800f 923a 819e b93c
00000050: 07ec 313c 888c c23a 19aa dbbc 5b45 fe3c
00000060: b6d1 233a 9a16 37bd 80ca 2ebc 070d e0bc
00000070: e571 c33c a39b 4c3a cf55 8abc 6181 2bbc

A_blocks.2.intro_bn.running_mean f4 [32]
0.79995924 1.0125213 0.44284606 0.19157119 0.41982865 0.399928 1.0709434 0.374555
1.2902638 0.7818234 1.0089536 0.7868783 0.69938487 0.5440964 0.99360675 0.64022106
0.7420299 0.60462725 0.95204073 0.9489467 0.6747502 1.0967668 0.4394147 1.0882034
0.6612614 0.68169177 0.8023306 0.3666989 0.65521693 0.44640866 0.395117 0.79596925
00000000: 21ca 4c3f 4c9a 813f b8bc e23e 3d2b 443e
00000010: c8f3 d63e 5dc3 cc3e ac14 893f acc5 bf3e
00000020: 5d27 a53f 9425 483f 6425 813f db70 493f
00000030: e30a 333f e749 0b3f 035d 7e3f 87e5 233f
00000040: acf5 3d3f dac8 1a3f f1b8 733f 2cee 723f
00000050: 6ebc 2c3f db62 8c3f f7fa e03e 404a 8b3f
00000060: 6d48 293f 5a83 2e3f 8a65 4d3f f5bf bb3e
00000070: 4cbc 273f ad8f e43e c74c ca3e a4c4 4b3f

A_blocks.2.intro_bn.running_var f4 [32]
1.45838 0.9628228 0.7928229 0.2805563 0.9735916 0.45966724 2.6187541 0.49879205
3.0834823 3.363943 1.1082747 0.6418713 2.0413797 1.1865991 1.8203632 1.3177291
2.0694723 0.4075823 0.6900958 3.2996647 0.49727893 3.237277 0.25972232 2.5380456
2.6043518 1.2244315 1.8906808 0.8789916 1.115354 1.3921384 1.2917799 3.4148679
00000000: 32ac ba3f 8e7b 763f 71f6 4a3f 13a5 8f3e
00000010: 4d3d 793f 8159 eb3e ab99 2740 ac61 ff3e
00000020: c657 4540 d84a 5740 f2db 8d3f ad51 243f
00000030: f7a5 0240 7be2 973f a901 e93f 59ab a83f
00000040: 3c72 0440 a1ae d03e 1eaa 303f b52d 5340
00000050: 589b fe3e 8c2f 4f40 53fa 843e 576f 2240
00000060: b3ad 2640 2cba 9c3f d401 f23f 9805 613f
00000070: ebc3 8e3f 9731 b23f 0b59 a53f 328d 5a40

A_blocks.2.C11.weight f4 [32, 32, 5]
-0.020684056 -0.01953792 0.024323149 0.003962149 -0.08341246 -0.004268944 0.053258892 0.07866668
0.055903114 -0.07037966 0.042222016 -0.005180271 -0.058526874 0.018453497 -0.085544474 -0.032043427
0.07696104 -0.07134447 -0.031618673 -0.0075101177 -0.06399019 0.015816815 0.06874984 0.04341106
-0.010429224 0.08761089 0.06037854 0.07601019 0.051918488 -0.057457678 -0.03519168 0.03377414
-0.0077922414 -0.1034219 0.0011898112 -0.100949444 -0.010466337 -0.031064825 -0.10311623 0.010338534
0.05320295 -0.06448661 -0.06189409 -0.027148344 0.031100105 0.045987073 -0.037898026 0.012564323
0.047538407 -0.108707 -0.04080563 -0.012256288 0.08611296 -0.063986175 0.034186386 -0.036396246
0.052052833 0.074982636 0.022740401 -0.086329505 -0.05757446 0.011722685 -0.017842952 0.005048929
-0.0034445159 0.05548144 0.0660033 -0.045262113 -0.0938242 -0.07733736 -0.050341487 0.017314658
0.010535566 0.05327892 0.021083893 0.029548358 0.0073061986 -0.062646456 -0.12352221 -0.14328346
-0.07350359 0.019701047 -0.026559401 -0.06626435 -0.06368256 -0.002418845 0.06704065 -0.089675605
-0.00399095 -0.065520875 0.07718178 0.03004805 -0.030102793 0.014789382 -0.06441365 0.00094185065
0.07366048 -0.0081113735 -0.044541065 -0.038928483 -0.0040116454 0.023805616 -0.08241608 0.056174867
0.04586437 -0.029000433 0.06608487 -0.04705051 -0.074478485 -0.024093177 0.06318784 0.08255726
-0.061215945 -0.09826033 0.01856936 -0.03372377 -0.003400738 0.025700064 0.023072295 -0.08955823
-0.07066777 0.017925175 -0.03432558 -0.10852233 -0.11385107 0.014781042 0.0087170815 -0.06494976
-0.0790368 -0.046510316 -0.020950796 0.068616994 0.067120835 0.015845858 -0.07545901 0.018890578
0.08017543 -0.028309446 0.039034367 -0.048053343 0.052742172 0.06003083 0.04767583 -0.045947604
-0.034081656 0.05328536 -0.035822377 -0.03839041 0.06731728 -0.015655829 -0.008633254 0.054260734
-0.0534415 -0.0094356695 -0.038879357 -0.042111352 -0.059280552 -0.04690503 -0.07667096 -0.0728333
0.0012294522 0.03879073 0.010838543 -0.050251838 -0.086686015 -0.05845717 -0.048208732 0.052656043
0.04885839 -0.0071967198 -0.009366701 0.032523982 -0.009161345 -0.087770775 -0.08684343 -0.045630347
-0.0052960166 -0.07065175 0.03213484 0.027316505 -0.074049555 0.041266855 -0.035029516 0.026033573
0.030637475 -0.08603222 -0.09344536 0.0050092246 -0.023046432 0.015990024 0.009842831 -0.048403077
-0.017975798 -0.0992304 -0.05200281 0.047616605 -0.030921526 -0.06587034 0.053427957 0.08930932
0.049516704 0.03487903 0.04640742 -0.007200341 0.018253192 0.011917447 -0.06688922 0.028745357
0.003294945 -0.014924526 0.069004424 0.0696437 -0.07337736 -0.02350412 0.03846987 0.0014465252
-0.0610207 0.030734917 0.044843268 -0.017800909 0.03593569 0.05627506 0.060248263 0.020108346
-0.071321905 0.03055882 -0.021485712 0.06879042 0.016455103 0.024793211 0.096033566 0.07431135
0.039143115 -0.05165639 -0.03672716 -0.01633181 -0.020356623 0.059107453 0.005667177 -0.093198545
-0.037225045 -0.0075160246 -0.011889429 -0.009861119 -0.018945241 -0.049695026 0.06432456 0.001249568
-0.048701663 -0.0013620878 -0.081011936 -0.080352895 -0.008162788 -0.012853221 -0.033439565 0.07402015
00000000: 9c71 a9bc fd0d a0bc 5741 c73c ead4 813b
00000010: 27d4 aabd 7fe2 8bbb ff25 5a3d ff1b a13d
00000020: aafa 643d 3623 90bd fef0 2c3d 43bf a9bb
00000030: e0b9 6fbd ca2b 973c f131 afbd f83f 03bd
00000040: c09d 9d3d 0d1d 92bd 9582 01bd 6f17 f6bb
00000050: 4a0d 83bd 4492 813c b7cc 8c3d cccf 313d
00000060: 56df 2abc 576d b33d 7d4f 773d 3bab 9b3d
00000070: 7ba8 543d be58 6bbd 2725 10bd c156 0a3d
00000080: 0f56 ffbb dcce d3bd 70f3 9b3a 95be cebd
00000090: 007b 2bbc a97b febc 9a2e d3bd f462 293c
000000a0: 56eb 593d 8e11 84bd a884 7dbd 3466 debc
000000b0: a6c5 fe3c f15c 3c3d f63a 1bbd 97da 4d3c
000000c0: a2b7 423d c7a1 debd ce23 27bd 99ce 48bc
000000d0: fe5b b03d 2f0b 83bd 0607 0c3d 3b14 15bd
000000e0: 5a35 553d 7f90 993d 144a ba3c 86cd b0bd
000000f0: 32d3 6bbd 8110 403c 622b 92bc 7c71 a53b
00000100: 63bd 61bb 8240 633d bd2c 873d c464 39bd
00000110: e726 c0bd 0d63 9ebd e032 4ebd 78d7 8d3c
00000120: 5e9d 2c3c ff3a 5a3d 21b8 ac3c 660f f23c
00000130: d668 ef3b c94c 80bd 36f9 fcbd e6b8 12be
00000140: 0d89 96bd 1764 a13c 1a93 d9bc 9bb5 87bd
00000150: 016c 82bd 7c85 1ebb 9c4c 893d d8a7 b7bd
00000160: 84c6 82bb cf2f 86bd 7b11 9e3d 5427 f63c
00000170: 229a f6bc 2a4f 723c 4eeb 83bd 87e6 763a
00000180: 4edb 963d 91e5 04bc b170 36bd 7973 1fbd
00000190: 1f74 83bb ff03 c33c c3c9 a8bd 9e17 663d
000001a0: 47dc 3b3d 5192 edbc 8157 873d 09b8 40bd
000001b0: 2d88 98bd 0e5f c5bc a068 813d c813 a93d
000001c0: 92bd 7abd b63c c9bd c51e 983c f021 0abd
000001d0: eade 5ebb f188 d23c 1c02 bd3c 4e6a b7bd
000001e0: 44ba 90bd d1d7 923c fb98 0cbd f540 debd
000001f0: c02a e9bd 2f2c 723c 17d2 0e3c 6104 85bd
00000200: 0cde a1bd 9a81 3ebd 01a1 abbc 1187 8c3d
00000210: a676 893d 2ccf 813c 418a 9abd 6ac0 9a3c
00000220: 0433 a43d 36e9 e7bc 80e2 1f3d 95d3 44bd
00000230: 2d08 583d e3e2 753d bb47 433d 8e33 3cbd
00000240: 3599 0bbd c041 5a3d 7cba 12bd 433f 1dbd
00000250: a4dd 893d a740 80bc 7e72 0dbc 8140 5e3d
00000260: 79e5 5abd 1198 1abc f63f 1fbd f47c 2cbd
00000270: 2ad0 72bd 7d1f 40bd aa05 9dbd a029 95bd
00000280: 9225 a13a 07e3 1e3d 2594 313c dfd4 4dbd
00000290: 7088 b1bd c970 6fbd 8576 45bd ddad 573d
000002a0: bc1f 483d 76d2 ebbb cb76 19bc de37 053d
000002b0: 7719 16bc 2ac1 b3bd f8da b1bd e3e6 3abd
000002c0: 358a adbb ddb1 90bd d29f 033d ddc6 df3c
000002d0: 4ba7 97bd 6f07 293d 1c7b 0fbd 5c44 d53c
000002e0: 71fb fa3c a931 b0bd 4860 bfbd 6c24 a43b
000002f0: dfcb bcbc 83fd 823c d343 213c 4e42 46bd
00000300: fb41 93bc 4f39 cbbd e600 55bd a109 433d
00000310: 244f fdbc 07e7 86bd 46d7 5a3d cee7 b63d
00000320: 07d2 4a3d 50dd 0e3d b515 3e3d d7f0 ebbb
00000330: b887 953c 6541 433c 37fd 88bd 627b eb3c
00000340: 01f0 573b 0086 74bc 3152 8d3d 5ba1 8e3d
00000350: df46 96bd b68b c0bc 9592 1d3d 5599 bd3a
00000360: d7f0 79bd cbc7 fb3c 93ad 373d 36d3 91bc
00000370: 4d31 133d ad80 663d e2c6 763d 42ba a43c
00000380: 3811 92bd 7e56 fa3c ce02 b0bc fee1 8c3d
00000390: dacc 863c 221b cb3c 3fad c43d 8d30 983d
000003a0: 8854 203d a795 53bd 386f 16bd 4aca 85bc
000003b0: efc2 a6bc a81a 723d bab3 b93b e1de bebd
000003c0: 4a79 18bd fc48 f6bb e1cb 42bc 8890 21bc
000003d0: 0d33 9bbc 038d 4bbd 98bc 833d 8bc8 a33a
000003e0: 657b 47bd 1588 b2ba 96e9 a5bd 0f90 a4bd
000003f0: 37bd 05bc 5196 52bc edf7 08bd e097 973d

A_blocks.2.C11.bias f4 [32]
0.08480277 0.046906553 -0.008962973 -0.010610418 0.07531942 0.023038017 -0.074715 0.07643607
0.07347467 0.040891323 0.008386635 0.023153046 0.001671273 0.055507157 0.0772675 0.09598354
0.002316458 -0.021542283 0.035380896 0.0018803506 -0.022957142 0.053574137 0.06621249 0.044484425
0.07180742 -0.03686917 0.10286636 -0.0639935 -0.03158866 0.018238071 0.086990036 0.01614542
00000000: 13ad ad3d 1621 403d 6fd9 12bc 52d7 2dbc
00000010: 1141 9a3d 39ba bc3c 2e04 99bd 848a 9c3d
00000020: e379 963d a97d 273d 1968 093c 75ab bd3c
00000030: 9e0e db3a 795b 633d 6c3e 9e3d 0593 c43d
00000040: b7cf 173b 7179 b0bc 8feb 103d 1976 f63a
00000050: 9e10 bcbc 8e70 5b3d 6a9a 873d 4d35 363d
00000060: c50f 933d 2004 17bd 99ab d23d 060f 83bd
00000070: 1c63 01bd 0268 953c d527 b23d 6643 843c
