src/model_fold_2.pth (torch, 231376 bytes, 46 tensors)

conv_in.weight f4 [32, 1, 5]
00000000: f781 c5be 7c91 c2bc 9f7b 23be fee3 663e
00000010: 27ee af3d 290b 9f3e ebe5 18be 22dc b4be
00000020: 2d38 b0be 27b0 8ebe 21ec 5c3e f8e5 e33e
00000030: 9ce4 c13e 8a64 a83e 1e9f 543c 9809 a43d
00000040: f22c db3d 7fe8 a4be 84ea c4be e48c adbe
00000050: d21c 483e 7e4b bdbe e075 d03e e7f5 343d
00000060: 903a 3c3e b20b 9c3d 5faf d73e 2a2c b73e
00000070: fa55 4b3e 15ae 813e ea8b 943c d26b 673d
00000080: e619 bebd 8435 cb3e 2651 a6bc 8c75 e03e
00000090: 9ca4 eabc 0284 a63e df68 6abe 6242 b5be
000000a0: 63c8 d33d f42d d73e 4f17 e53e 1a31 363e
000000b0: 36c6 9dbe 45c9 88be a814 05be b279 e8bc
000000c0: c99a bcbe 50ed f7bd 29ba 56be 056c e4bd
000000d0: 75c2 df3e 8f74 1ebe 1c70 043e 7c9a bf3d
000000e0: d5bc d83e 7973 d1be 261a 4d3e 166c 0abd
000000f0: 9e6b 0d3e aaba 0fbe a83c 0ebe ee2b 0b3e
00000100: bbb1 b13e 154e cdbe 4666 7cbe bc20 66be
00000110: f25c d0bd 112f 97be ff76 14be c302 82bd
00000120: e0c8 9abe a590 883e e9e8 43bc 38c9 f93d
00000130: 9869 d1be 40d9 6abd e3e1 e83e 7955 23be
00000140: f0a3 173e 62cc 8c3e b388 283e 160f 82be
00000150: 2790 293e dd1e 9a3e bbf5 bcbe 8e50 983e
00000160: 050f 443e 4bc0 b33e 74cb 4abd 1c87 903e
00000170: f666 b2be bae2 1c3e 0f54 d13e 530e d53d
00000180: 876c ab3e 7090 d83e d3ff a53e 23dc d7bd
00000190: aade 8ebe 9805 6c3e 2dc4 8d3d 89df 61be
000001a0: 7160 0ebe aa42 5d3e 9ec2 1abd 84b8 423e
000001b0: 8646 8b3e 45eb b3be c3f3 02be 1f6c 8fbe
000001c0: e7dc 67be 8f2d 933d f97f 213d 0fa2 7fbd
000001d0: 495e 6d3e 7811 de3e 9f23 2d3e 1378 84be
000001e0: f220 9ebe 2cab 173e 3700 71bd fb35 1cbe
000001f0: b0a6 993e 0e80 65be 10b6 66bd 07f9 923e
00000200: 39f6 513e 7bc8 153e bc33 b4be 3530 5d3d
00000210: 3108 82be d460 ab3e 3267 9fbe e38c 863e
00000220: 5cc5 e13e 3f28 853e 690f a1be 62d0 ad3e
00000230: e117 a33e abe8 35be 5abe 8b3e 2b63 ecbc
00000240: cc26 08bd 4fd3 83be f170 02be 0f0d b83e
00000250: b6f4 af3d 7026 c33d 55aa ec3b 35c5 de3e
00000260: e382 0dbe e067 d83e 9a36 9b3c 0e38 4ebe
00000270: 1184 a1be 316e cfbd 2894 243e c4d3 e53d
-0.38575718 -0.023751013 -0.15965126 0.2254791 0.08590346 0.31063202 -0.14931457 -0.35324198
-0.3441786 -0.2786877 0.21574451 0.4451139 0.37869728 0.32889205 0.01297739 0.08009642
0.10701932 -0.3220863 -0.3846017 -0.33896554 0.19542244 -0.36971658 0.4071493 0.044179823
0.18381715 0.07619418 0.42125985 0.35775882 0.19857016 0.25328127 0.018133122 0.05649931
-0.092822835 0.39689267 -0.020302366 0.4383968 -0.028642945 0.3252259 -0.22891568 -0.3540221
0.10340955 0.42027247 0.44744346 0.17792168 -0.30815285 -0.26716056 -0.12996161 -0.028378341
-0.36836842 -0.12105811 -0.20969452 -0.111534156 0.43703046 -0.15474151 0.12933391 0.093556374
0.42331567 -0.4090841 0.20029506 -0.033794485 0.13810584 -0.1403605 -0.13890326 0.13590977
0.3470591 -0.40098634 -0.24648389 -0.22473425 -0.10173978 -0.29528096 -0.14498518 -0.06348183
-0.3023138 0.26672855 -0.011957386 0.121965826 -0.40900874 -0.057336092 0.45484838 -0.15950574
0.14808631 0.27499682 0.16458397 -0.25402135 0.16558896 0.30101672 -0.36906227 0.29748958
0.19146354 0.35107645 -0.049510434 0.2822808 -0.34844178 0.15320864 0.40884444 0.10403123
0.33481237 0.42297697 0.3242174 -0.105400346 -0.27904254 0.23049009 0.06922183 -0.22057928
-0.13903977 0.21607462 -0.037783258 0.190157 0.27202243 -0.35140434 -0.127883 -0.28012177
-0.22642861 0.07186424 0.039428685 -0.06241041 0.23180498 0.43372703 0.1690812 -0.2587286
-0.3088451 0.1481139 -0.058838096 -0.15254967 0.30009985 -0.2241213 -0.056325972 0.28705618
0.20504083 0.14627258 -0.3519572 0.054001052 -0.25396875 0.33472311 -0.3113342 0.26279363
0.44095886 0.26007268 -0.3145707 0.33948046 0.31854156 -0.17764537 0.27293664 -0.02885588
-0.033240125 -0.25747153 -0.12738396 0.35947463 0.08591597 0.09528816 0.0072224536 0.43509832
-0.1381946 0.4226675 0.018946934 -0.2013857 -0.3154607 -0.10128439 0.16072142 0.11222032

conv_in.bias f4 [32]
00000000: 64af ffbd c4d9 bdbe 0026 3bbe bea8 b1be
00000010: 56ce 14be 7704 383e 333d bcbe 4660 babe
00000020: b112 d93d 45a1 353d 2c6c 333d 0c14 51be
00000030: e9a9 4b3d 0f40 76be a6ec 00be 5e01 8ebd
00000040: 6880 b5be 89c7 523e b162 e33d dcf5 7f3e
00000050: 280e c33d e0a1 e0be 75d2 a8be 5a35 e53e
00000060: 1034 7fbd 2869 acbe 4e00 7f3e 5231 88be
00000070: 48fe 70be 8939 39be c7bd ce3d d10d bb3e
-0.12484625 -0.37080204 -0.18276215 -0.34699053 -0.14531836 0.17970453 -0.3676544 -0.36401576
0.10599268 0.04434325 0.043804333 -0.20417804 0.049722586 -0.24047874 -0.12590274 -0.069338545
-0.3544953 0.20583929 0.11102808 0.24996132 0.095241845 -0.438735 -0.32973066 0.44767267
-0.06230551 -0.33673978 0.2490246 -0.26600128 -0.235345 -0.18088354 0.10094791 0.3653398

A_blocks.0.intro_bn.weight f4 [32]
00000000: 25a3 803f 131a 803f 5449 813f 4a56 7f3f
00000010: 4118 833f bc76 7e3f 815b 813f a916 813f
00000020: 0428 7c3f 6932 813f 42e5 803f 2341 7d3f
00000030: c3c2 813f d39e 813f a21f 7f3f b3b3 823f
00000040: e73a 7e3f b0a7 813f 95a6 7f3f ea66 7f3f
00000050: 43b3 7c3f 6540 813f a2d4 7e3f ceae 7b3f
00000060: d310 813f 6cd0 803f 7b2b 7c3f b286 7b3f
00000070: 937a 803f b166 7d3f 538e 7a3f 9230 7c3f
1.0049788 1.0007957 1.0100503 0.9974104 1.0241777 0.99399924 1.010605 1.008504
0.9849856 1.0093509 1.0069964 0.98927516 1.0137562 1.0126594 0.9965764 1.021109
0.9930863 1.0129299 0.9986356 0.9976641 0.9871103 1.0097777 0.995432 0.98313606
1.0083259 1.0063605 0.98503846 0.98252404 1.0037407 0.9898482 0.9787342 0.9851161

A_blocks.0.intro_bn.bias f4 [32]
00000000: fd9c 11bc 32bd 3ebc 1127 893c 2f37 023b
00000010: 7cd0 9a3c aef6 60bc 402c e33a 2012 143b
00000020: eee4 8b3c 1b91 6c3c 76e7 e13b 04e4 1b3c
00000030: 806f 493c 3903 323b 301e a9bb 9a85 d4b9
00000040: 7504 2d3c 7b12 2b3c c048 10bc b5fd a539
00000050: ed29 9bbb 02a0 0dbb a725 02bc b04c b4bb
00000060: 475f 443c 9da2 ad3c f63e 623c 9c3b 4d3c
00000070: 9426 913c efaf 113c d0fc 4d3c e2bc b03a
-0.008887527 -0.011641787 0.016742261 0.0019869318 0.018898241 -0.013730688 0.0017331913 0.002259381
0.017076936 0.014438893 0.0068940474 0.009514812 0.01229465 0.0027162565 -0.0051610693 -0.00040535332
0.010560145 0.010441418 -0.008806407 0.0003166028 -0.0047352226 -0.0021610265 -0.007943547 -0.005502306
0.0119856065 0.021195704 0.013808956 0.012526419 0.01771859 0.0088920435 0.012572482 0.0013484026

A_blocks.0.intro_bn.running_mean f4 [32]
00000000: e854 2fbe c2f9 ffbe 37f7 3a3d a7d0 f7be
00000010: c687 90bd c2ce c93e a77d 9ebe 19e6 aabe
00000020: 8458 7c3e 6689 dabd 26d8 653d 20ec 20be
00000030: 8598 d63d ceee e6be 1ed5 2dbe af8e a0bd
00000040: 6786 8abe 0ab8 a93e 6164 3b3e 8f3e db3e
00000050: 6bdf 203d 6f4e c7be 75d5 d5be d542 083f
00000060: 9c5c 9dbd 4c21 90be 49f5 233e 36a2 cebd
00000070: 11df 33be e394 22be 4ee3 643e aa45 9c3e
-0.17122233 -0.49995238 0.04564592 -0.48401377 -0.07057147 0.39415556 -0.3095524 -0.33378676
0.24643141 -0.10670738 0.05611434 -0.15715075 0.104783095 -0.4510407 -0.16975829 -0.07839715
-0.27055666 0.33148223 0.1830001 0.42821166 0.039275568 -0.38927028 -0.41764417 0.5322698
-0.076836795 -0.28150403 0.16011538 -0.10089533 -0.17565562 -0.15877108 0.22352335 0.305219

A_blocks.0.intro_bn.running_var f4 [32]
00000000: 81ae b43b e4c0 f93c 70e6 a13d 192d 043d
00000010: 4bdc 0f3c e8d6 8d3d cac3 b13b 51ee d23b
00000020: 43b2 083d 0fcd 083d e218 c43a 9cfb 803b
00000030: d349 b13b 8b74 843d d506 6d3b 397a 973a
00000040: 00bc 343c 56fe c43c 9283 0c3c 277e 4a3d
00000050: 1dfc 9d3b baf1 9d3b 5e58 4e3c 17f9 553c
00000060: cd37 bf3a 2bb1 f13b 835e 3f3c e1dd 273d
00000070: 4030 b53b 25e7 4f3b b098 ba3c 0674 fc3b
0.0055139665 0.030487485 0.079052806 0.03226957 0.008780549 0.06925756 0.005424951 0.006437101
0.03337313 0.033398684 0.0014961029 0.003936244 0.005410412 0.06467541 0.0036167402 0.0011556811
0.011031151 0.024047058 0.008576291 0.049436715 0.004821314 0.004820076 0.012594311 0.013059876
0.0014588773 0.0073758564 0.011680248 0.040983085 0.0055294335 0.0031723466 0.022777885 0.0077042608

A_blocks.0.C11.weight f4 [32, 32, 5]
00000000: 810f 85bd 6f19 09bc e0ff b1bc b3a6 a83b
00000010: 1a01 22bc d066 b33c 0a30 d9bb f639 5a3c
00000020: 6115 4c3d 190a 89bd e2cc 22bd 693d 6b3c
00000030: 132e 60bd 9115 eb3a 398d 813c a7ee 893d
00000040: 3e46 833c 01f4 6a3d 5460 cc3c 9c4e 2bbd
00000050: 4919 1bbd 0830 e63c 2143 c5bb d55d 9cbd
00000060: 46d6 8abd 3369 cb3c 3129 4f3c a029 69bd
00000070: bf51 453d 80e1 83bd 4fd9 34bd 0ab5 32bd
00000080: 0e3d 323d 65c5 14bd b687 df3c b59f a1bb
00000090: 271a 9f3d d7fe 43bb 5f4c 91bd 425c d6bc
000000a0: 7677 26bd 2620 78bd eebc a13c a93d 483d
000000b0: a36e 28bd 98e4 99bd c8cc 18bd cc7a adbc
000000c0: ef3a 5dbd 86e0 5cbd 15d4 86bd 9b62 b43c
000000d0: b154 1c3d 6bee 443d b504 86bc d4a8 7f3c
000000e0: 1cd8 873c ac33 93bd 937f 193d 7070 05bd
000000f0: 5863 603d ef47 0f3d d16b 733c fd7f 01bd
00000100: 24cd ba3c 7260 0cbc 6ebe febc 5d40 0f3a
00000110: a1e2 933d 3289 06bc e0b1 8dbd 1e9a 33bd
00000120: 8bc9 2e3d 84a4 913d d643 213d 6c23 9bbd
00000130: eb03 8abb fdd6 b03c afa1 64bd bb75 08bd
00000140: 66c2 83bd 9230 9a3c 9e51 8c3d 6ef5 adbd
00000150: a7bb 173c eb1a 4bbd 9ec5 633b 7f75 443d
00000160: 690b d03c 90bb aebc e3fb ddbc 252b 583d
00000170: 7f1a 32bd d71e 693d d379 b63b 96a7 473c
00000180: 3c3a 4cbd ae4c 003d dd68 b13c 5b37 76bd
00000190: a3eb 14bd 8e27 f03b a5a5 853c 1645 743b
000001a0: 0050 443c c4a9 a03c bcb9 863d 72a3 063d
000001b0: 803c 9cbd 77fb c8ba 5c4a 213d 2209 fd3c
000001c0: e3c5 0fbd abb0 b0bc a61b 3fbd 293b 9b3d
000001d0: 0a94 003d ad74 663c 19fd 14bd 5684 993d
000001e0: 0ced 413d b46e 7739 4fd7 7abc de72 1d3d
000001f0: b7f2 443d bb02 043c d5d3 6fbc 3489 913d
00000200: c105 863d 9bd5 39bd 7d74 debc a377 6b3d
00000210: 5187 c83c 3173 15bd f5ef a43d 678d b13c
00000220: ed46 043d a66f ca3c 8979 2dbc 032e 15bc
00000230: 561a cdbc 1614 8fbb 92ad 70bd ef35 953d
00000240: ba96 d13a 230c 093d 9778 7ebc cbda 843d
00000250: 6a4b 97bd 2a12 9dbd 3c3e 053d fb00 a3bc
00000260: 4ad5 1abc 5987 bfbc 8475 6d3d 7f6c 103a
00000270: f3d6 28bd d450 7b3d 078c 82bd a0ba 33bd
00000280: 137d 193c 19d6 99bc d0b9 953c 8c03 c2bc
00000290: 252b 8e3d 3a2d 89bd 867c 7b3d 69b2 a7bc
000002a0: 161a cfbb 5e9d 5ebd e96a 6c3d ecb0 013d
000002b0: 6eb8 0dbd 482d d5bc 4d7c 95bd f641 823c
000002c0: a8bb aa3b b493 f5bc 175a 813d f20b 1cbd
000002d0: ed36 b5bd 1fbd 0c3d 326f b5bd de1c 8f3d
000002e0: a38f 63bc 18c8 833d e8a9 3fbd 5684 853d
000002f0: 33d0 1b3c 03af 78bd a05d 6ebd 8c8d 633d
00000300: bc6d 43bd 1c68 0abd f0e8 85bd 8cec a13d
00000310: 2595 34bd 3668 3d3c 0343 8dbd 3c6f 3c3d
00000320: 60af 403b 3304 9abd 8a42 1b3c d52c 033d
00000330: b440 513d 070b a1bc 8e2a b43d 09a9 61bd
00000340: dcb3 2ebc c219 763d 6794 8f3d 6ac5 133d
00000350: a833 683d c6f5 42bd d189 163d 220d ca3a
00000360: 6246 a1bd adb2 9ebd 6fa0 08bd ea68 31bd
00000370: 24cb 8cbd 5def 85bc 9b26 bbba 1d92 873c
00000380: 712e 9c3d 49e2 843d a247 8ebc 6082 b93c
00000390: ec80 c63b fce8 d53c 64ca 95bd 46fe 5cbd
000003a0: f45f ab3d 3663 973a f4de 8d3c 98d4 fd39
000003b0: 7106 7f3d fc82 9abd badd 233d d925 0c3d
000003c0: 4944 5a3c b5f2 5fbd 0e7a 113d 7e8c 4cbd
000003d0: 6c53 ab3b d5be 123d d4c4 723b 3da8 c7bb
000003e0: d8c0 06bd af15 74bb 860b 0cbb 8e21 0fbd
000003f0: e66b 0abc 93e6 9d3d b7fc 823d ab1c 98bd
-0.06497098 -0.00836788 -0.021728456 0.005146825 -0.009887958 0.02189961 -0.006628041 0.013319483
0.049825076 -0.06691379 -0.039746173 0.014357903 -0.05473144 0.0017935504 0.01581441 0.067349724
0.016024705 0.057361607 0.024948277 -0.041823015 -0.03786591 0.028099075 -0.0060199653 -0.076350845
-0.06779151 0.024830436 0.012644098 -0.056924462 0.048173662 -0.06439495 -0.044152554 -0.043629684
0.043515258 -0.036321063 0.027286392 -0.0049323686 0.0776866 -0.0029906535 -0.07094645 -0.026167039
-0.04064127 -0.060577534 0.019743409 0.04888693 -0.041121136 -0.07514304 -0.03730467 -0.021176718
-0.05401128 -0.05392506 -0.0658342 0.022019675 0.038166706 0.048078936 -0.016359666 0.015604217
0.016582541 -0.0718759 0.03747518 -0.032577932 0.05478224 0.03498071 0.014857248 -0.0316162
0.022802897 -0.008567916 -0.031096663 0.0005464608 0.072209604 -0.008211421 -0.069186926 -0.04384815
0.042672675 0.07111457 0.039371334 -0.075751156 -0.004211893 0.02158689 -0.055818256 -0.0333154
-0.06433563 0.018821988 0.06851505 -0.084940776 0.009261048 -0.049586218 0.003475524 0.047963616
0.025396066 -0.021329671 -0.027097648 0.05277552 -0.0434823 0.056914177 0.005568722 0.012185952
-0.049860224 0.031323127 0.021656448 -0.060111385 -0.036357533 0.007328934 0.016314337 0.0037272624
0.011981964 0.0196122 0.06578395 0.032870717 -0.07628727 -0.0015333731 0.039377555 0.030888144
-0.03510083 -0.021568617 -0.046657227 0.07579643 0.03139118 0.014065904 -0.036374185 0.07495944
0.047345206 0.00023596996 -0.015310123 0.038439624 0.048083033 0.008057292 -0.014637907 0.071062475
0.06544066 -0.045369726 -0.027155155 0.05748714 0.024478586 -0.03648681 0.08053581 0.021673871
0.032294203 0.024711441 -0.010588058 -0.009105208 -0.025036972 -0.004366408 -0.05875928 0.07285678
0.0015990355 0.03345884 -0.015531681 0.06487044 -0.07387431 -0.0766948 0.032530054 -0.019897928
-0.009450266 -0.023379968 0.0579734 0.0005509331 -0.041220617 0.06135638 -0.06374364 -0.04387915
0.009368199 -0.018778848 0.018277079 -0.023683332 0.06941823 -0.066980794 0.06139805 -0.020470815
-0.0063202484 -0.054349296 0.057719145 0.031662866 -0.034599714 -0.026022568 -0.07299099 0.015900593
0.0052103586 -0.029977657 0.063160114 -0.03809733 -0.08848367 0.034360047 -0.088590994 0.06987928
-0.013889226 0.06434649 -0.046792895 0.06519382 0.009510088 -0.06071378 -0.058194757 0.05555491
-0.047712073 -0.033790693 -0.0653857 0.07906446 -0.044087548 0.01156049 -0.06897547 0.04600452
0.0029401407 -0.07520332 0.009476313 0.032025177 0.051087096 -0.019658579 0.08797179 -0.055092845
-0.010662999 0.06008316 0.070107274 0.03607694 0.05668989 -0.04759767 0.036752526 0.0015415291
-0.078747526 -0.077489235 -0.033356126 -0.043312944 -0.068746835 -0.016349489 -0.0014278473 0.016549164
0.076260455 0.06488473 -0.017368142 0.022645175 0.006057849 0.026112072 -0.073139936 -0.05395343
0.08367911 0.0011549953 0.017318226 0.00048414315 0.062262002 -0.075445145 0.040006377 0.03421578
0.0133219445 -0.054674823 0.03551679 -0.04993867 0.0052284505 0.035826523 0.0037043588 -0.0060930536
-0.032898754 -0.003724437 -0.0021369173 -0.03494411 -0.008448577 0.07709994 0.06395858 -0.07427343

A_blocks.0.C11.bias f4 [32]
00000000: e057 3bbd 7783 7e3d e32f 98bc af3e 10bd
00000010: 86cb a7bd 4307 923d 4930 5e3d bf1c 7fbd
00000020: 122c af3c ed4c 82bd 3cf4 8f3d 148f 61bd
00000030: bc0e 32bc ce00 8ebc 74f2 07bc 9589 893d
00000040: 370e 643d 1127 843d bbc0 9b3c 952c 8a3c
00000050: bbbc ab3d 28fd 363d d410 8c3d 0da3 0fbd
00000060: f670 6ebc 526a b33d bf6e 313d ed0b 12bd
00000070: 359f c7bc ca1a 8a3c 8c4d f4bb 29b4 cebc
-0.0457381 0.062137093 -0.018577522 -0.03521603 -0.08193116 0.07130291 0.054245267 -0.062283274
0.021383319 -0.06362329 0.07029006 -0.05506809 -0.010867771 -0.017334368 -0.008297551 0.06715695
0.05567762 0.06452764 0.0190128 0.016866961 0.08385607 0.044675022 0.06839147 -0.035067607
-0.014553299 0.08760513 0.043318506 -0.035655905 -0.024367908 0.016858477 -0.0074555334 -0.025232391

A_blocks.0.C12.weight f4 [32, 32, 5]
00000000: 7bc5 18bd 7172 86bd 970f 82bd 186f ab3d
00000010: 722b 68bd 33c3 e13c 5883 66bd 206a 44bd
00000020: 7cfb 563d a0c9 94bd fc24 5b3c 3f91 893d
00000030: fff6 fc3a bb12 843d 3ab5 0c3d 2cc8 423d
00000040: 0d28 853d 7c2c 33bb 17d5 afbc 9310 9abd
00000050: eea6 603d f7a2 a83d 935c 23bd 50e3 863d
00000060: 054a 86bb b7d4 193d 5f15 5ebd e987 06bc
00000070: 7c9a fd3c beee 64bd 67b6 84bd e00f 7d3c
00000080: 1b5d 4f3d 0e3a 79bd d622 063d dffc be3b
00000090: 7e54 ae3c 4948 febc cfd3 553d 6423 303d
000000a0: 1a34 753d 1640 a7bc 32a8 bebc 02f6 ce3b
000000b0: f492 303d 529e 02bd 75c7 66bd f707 75bd
000000c0: 37dc 993d edb6 bebc eb0b 253d e076 293c
000000d0: 6a70 503d 4dc9 75bd 1be1 583d d8c3 d23c
000000e0: 9c53 4b3c 9502 743d a7b4 113c 795f 18bd
000000f0: 9eb1 76bd 79d1 3e3d c041 db3c a4c7 7a3d
00000100: 100f a53d 107e 2fbd ec15 30bd 18c3 1dbd
00000110: 4e02 433c 294f 4cbd 23e9 4fbd af05 753d
00000120: ad12 61bc 5712 24bd 5cb5 533d fe30 513d
00000130: 7ccb 35bd c46b 8a3c a478 4ebc c21a 1b3d
00000140: ce90 58bc 4a41 033d 1cd6 563c 77a4 7c3d
00000150: f699 7b3d e285 203c 7a4c 103d 8a7f 20bd
00000160: a878 f3bb a2ed 0d3d 8cfb 213c b6ef 823d
00000170: 3cd2 593d 85d2 853d 1cb0 12bd 20a4 04bd
00000180: 90dc e03b 9726 84bd 959c 6fbd 051a 09bd
00000190: dad1 1d3d 1e77 40bd 4707 4fbc 4c5e 85bd
000001a0: 4e5d 333d f091 3d3d c3dd fabc 6459 48bd
000001b0: c9b5 153d 6604 93bc ebf8 aa3b 432d 233d
000001c0: bb33 b43d 8eea ac3d f02f 95bd 6e68 a73c
000001d0: 4747 1f3d da67 3a3d f6fe 2cbd 2044 023d
000001e0: 785d 6d3d 5686 4f3c 3c23 1c3d 869d 9a3d
000001f0: 4eea 543d 9185 a63d b717 193d 4f5d 833d
00000200: 316b 2a3d f60b 673b e784 403d e73d 073d
00000210: 00e1 87bd b634 fabc 60aa 123d 4975 46bc
00000220: dc42 81bc d5d5 b63c 304a 95bd 2673 2f3d
00000230: afea 6cbd 86dc 8a3d 3a18 f1bc 3c79 14bd
00000240: 3804 903b 70c8 97bd 802d a0bd ebad deb9
00000250: 4c3f 45bd ddf1 57bd f4d7 e83c 05e0 343d
00000260: f950 f43c 308a 36bd 1891 a83c 0796 0ebd
00000270: 8ed9 7e3d 09da 56bd f131 90bd 336a 3d3d
00000280: 7ea6 a93d 6bf3 863d ee30 3a3c fc46 14bd
00000290: 20f7 e7ba 91d6 1fbd 605e 673d d9f0 893c
000002a0: 8c47 b2bc 0fb9 613c 1504 57bd 41bb 1e3d
000002b0: aecf b7ba 8143 0b3d 57e2 1ebd 66d7 023d
000002c0: 7da9 2a3d a358 a5bd 44fe ecbc 2734 12bd
000002d0: 2d9f dc3c 9172 9dbd 8542 8d3d 5d58 1f3d
000002e0: 2b26 0f3d 944b 11bd 0fec 603d b41d c9bc
000002f0: 9492 6d3d 3e67 c03d 5af7 773c 384d 95bd
00000300: 22f9 403d 3d85 32bd 1835 e73c 1fe5 50bd
00000310: 1980 4cbb 57b3 0b3d 0f7f 3ebd 4558 6b3c
00000320: 2a8e 26bc 3e28 1dbd 299a 4ebd f7ec 3bbd
00000330: 2547 46bc 1e01 86b9 4cc6 343d e8c9 85bd
00000340: d5c8 9cbd ed0a 9bbc a1e5 863c b861 9cbc
00000350: bd67 83bd 3087 0e3d 1b63 f43c 6d32 aa3b
00000360: 524e 873d 9005 8f3c 3a15 a7bd 31b6 a5bd
00000370: 586a 84bc f252 2fbd 4b6d 10bd 556c a1bd
00000380: 71cf 3fbd da33 07bd 3701 a2bd a9fe 7fbd
00000390: 53e6 62bd 8745 e73c 22a0 5fbc e866 363c
000003a0: 1a69 d338 9f93 083d 225b 4dbc 19d2 fb3c
000003b0: 6f5d f03c c67e ce3c acfc ae3c 7cb1 6b3d
000003c0: 5f6f c4bc da86 1abd 2c86 863c 0a80 b73c
000003d0: e986 a03c 274f 39bd bf5a 033c dfcb bd3c
000003e0: 5afc 81bd 0479 0dbc 3de5 5abd 2bd7 8f3d
000003f0: 1e52 c4bd 87ca 4b3d c732 603c 61dc b4bd
-0.037297707 -0.06564797 -0.0635063 0.08370799 -0.056682058 0.027558899 -0.056277603 -0.04795277
0.052485928 -0.072650194 0.013375517 0.067171566 0.0019299685 0.06448885 0.03435252 0.04755418
0.0650178 -0.0027339747 -0.021463914 -0.075226925 0.054846697 0.08234208 -0.039883208 0.06586325
-0.0040981793 0.037556376 -0.0542196 -0.008211114 0.030957453 -0.055891745 -0.06480103 0.015445679
0.0506259 -0.06084638 0.032748066 0.0058284844 0.021280523 -0.031040328 0.05220395 0.0430025
0.05986414 -0.0204163 -0.023273561 0.0063159475 0.043108895 -0.031889267 -0.05634256 -0.05982205
0.07512706 -0.023280585 0.04029457 0.010343283 0.050888456 -0.06000643 0.052949052 0.025728151
0.012410071 0.059572775 0.0088931685 -0.037200425 -0.060227983 0.046586487 0.02676475 0.06122555
0.080595136 -0.042844832 -0.042989656 -0.038516134 0.011902405 -0.04988018 -0.050759446 0.059819873
-0.013737363 -0.040056553 0.05168663 0.051072113 -0.04438351 0.01689709 -0.012602005 0.037867315
-0.013218118 0.032044686 0.013112571 0.061680283 0.061426125 0.009797545 0.035229184 -0.03918413
-0.007430155 0.034650452 0.009886634 0.063933775 0.05317901 0.06534294 -0.035812482 -0.032383084
0.0068622306 -0.06452673 -0.058498938 -0.03347208 0.03853021 -0.0469886 -0.012636012 -0.06512126
0.043790154 0.046281755 -0.030623322 -0.048913375 0.036550317 -0.017946433 0.0052176616 0.039838087
0.08798929 0.08443175 -0.07284534 0.020435538 0.038886335 0.045509197 -0.042235337 0.03180325
0.057950467 0.0126663055 0.03811954 0.075495765 0.051981263 0.081309445 0.03737613 0.064142816
0.041606132 0.0035254932 0.047001746 0.03301802 -0.06634712 -0.030542713 0.035807014 -0.012112924
-0.015778951 0.02231876 -0.07289541 0.042834423 -0.057841 0.06780343 -0.029430497 -0.03624843
0.004395034 -0.07411277 -0.078211784 -0.0004247272 -0.048156068 -0.052720893 0.028423287 0.044158954
0.029823767 -0.04456538 0.020576999 -0.034811046 0.062219195 -0.05245403 -0.070407756 0.046243858
0.08283709 0.06589397 0.011364205 -0.03620051 -0.001769755 -0.039022986 0.056486487 0.016838478
-0.021762632 0.013777032 -0.052494127 0.038752798 -0.0014023685 0.033999924 -0.038790073 0.0319437
0.041665543 -0.08073547 -0.028929837 -0.035694268 0.02693137 -0.076878674 0.06897453 0.03890263
0.03494851 -0.035472468 0.054912623 -0.024550296 0.058001116 0.09394692 0.015134657 -0.07290119
0.04711259 -0.043584097 0.02822356 -0.050999757 -0.0031204282 0.03410658 -0.04650789 0.014364307
-0.0101657305 -0.038368456 -0.050439987 -0.045880284 -0.012101923 -0.00025559304 0.044134423 -0.06532651
-0.07655493 -0.018926108 0.016466917 -0.019089565 -0.06416271 0.034796894 0.029832413 0.0051939995
0.06606735 0.017458707 -0.081583455 -0.08091391 -0.01616399 -0.042803712 -0.03526048 -0.07881991
-0.04682869 -0.033008434 -0.07910388 -0.062498722 -0.055395436 0.028231395 -0.0136490185 0.011132933
0.00010080841 0.033343907 -0.012533935 0.03073983 0.029341428 0.025206935 0.021360718 0.05754231
-0.023978887 -0.03772626 0.0164214 0.022399921 0.01959558 -0.0452415 0.008017241 0.023168502
-0.0634696 -0.008634809 -0.053441275 0.07023462 -0.09585975 0.049753692 0.013683981 -0.088310964

A_blocks.0.C12.bias f4 [32]
00000000: c0ed 3dbd 3c3c 083d be4a bc3c 500e 99bd
00000010: d752 a5bc 67a1 52bc 061f 1fbc 48aa 313c
00000020: 1819 41bd d8b8 4ebd a6eb 893c 283e 12bd
00000030: 5059 913d 4df1 5cbc 6d97 863d 2b9f eabc
00000040: 6df1 853d 85e9 3c3d 9692 323d 8403 2bbd
00000050: 2677 813d b0b2 9d3d 6712 4fbc b52d 983c
00000060: a043 35bd ed79 a5bd e914 06bc ff91 283d
00000070: b7ff 5f3d 274c 19bd ba55 afbc 321c 383d
-0.046369314 0.03326057 0.022984859 -0.07473433 -0.020181103 -0.012855864 -0.009711986 0.010843821
-0.047143072 -0.05046925 0.016835999 -0.035703808 0.07097113 -0.013485265 0.06571851 -0.02864035
0.06540189 0.04612114 0.043596826 -0.0417514 0.06321554 0.077000976 -0.012638665 0.018576482
-0.044253945 -0.08079896 -0.008183696 0.041154858 0.054687228 -0.03742614 -0.021403182 0.044948764

A_blocks.1.intro_bn.weight f4 [32]
00000000: dc02 803f 8a42 803f 68c6 813f 839d 7f3f
00000010: 8e6c 7f3f 4550 813f fa24 7f3f 140f 7e3f
00000020: 368b 7f3f a53b 7b3f 82c0 813f ab49 813f
00000030: 1529 813f 9b81 813f 178a 7f3f e792 7f3f
00000040: 79f1 7c3f 32b0 7d3f 1806 813f d869 823f
00000050: bbde 7e3f bc32 7a3f bce9 803f 600a 813f
00000060: b4a0 7d3f 6e32 813f 6309 803f e11d 813f
00000070: 6683 7d3f 2622 7e3f ea93 803f e48e 813f
1.0000873 1.0020306 1.0138674 0.9984972 0.99775016 1.0102621 0.99665797 0.9924176
0.99821794 0.98137885 1.0136874 1.0100607 1.0090662 1.0117677 0.99820083 0.9983353
0.9880596 0.9909698 1.0079985 1.0188551 0.9955861 0.97733665 1.007133 1.0081291
0.9907334 1.0093515 1.0002865 1.0087243 0.99028623 0.99270856 1.004514 1.0121732

A_blocks.1.intro_bn.bias f4 [32]
00000000: e36c 67bc ccc4 59bc f10f c63c f3a4 853c
00000010: 316a a73c 72e9 9dbc 43eb 0a3c b072 06bc
00000020: cae0 753c 7666 92b9 4f39 153d 65ed 5c3c
00000030: cf8a a73c 223d 8e3c faaa f63b 2feb 993c
00000040: 0674 adbb 51d0 013a 216c df3c e689 9d3c
00000050: 07c8 80bc cf4e d83c 99fa 4fbc d58a 353b
00000060: 1370 593b e9a5 483c a77f 9c3c d870 e33b
00000070: 302b e23c cd15 ff3b a98d b13c e664 3e3c
-0.014125082 -0.013291549 0.024177523 0.016314005 0.020436378 -0.019276354 0.008478942 -0.008206055
0.015007207 -0.0002792363 0.036431607 0.013484334 0.020451931 0.017363135 0.007527706 0.018788902
-0.005293372 0.0004952001 0.02727324 0.019230794 -0.01572038 0.026404766 -0.0126940245 0.0027701159
0.0033178374 0.012246587 0.019103838 0.0069409423 0.027608484 0.0077845813 0.021673994 0.011620736

A_blocks.1.intro_bn.running_mean f4 [32]
00000000: 65ce 4a3f 1a51 863e b5e8 123f f9ad 533f
00000010: db1f 573f 1788 983d 58f7 003f 7035 f23e
00000020: 4cf7 8e3e d6d2 1b3f 85a4 cb3e 65d8 493f
00000030: 46f2 4a3f 9cc6 4a3f 1c90 313f be11 813f
00000040: ccac 6f3f de8a 423e e903 593f cfd2 1e3e
00000050: 707c 623f a370 5f3f 93b7 103f 085c c03e
00000060: 70a6 243f 7875 533f 3e0a ed3e b9df bb3c
00000070: 37cc ec3e 3ff5 d83e 06e1 1a3f 51db 083f
0.79221183 0.2623375 0.5738633 0.82687336 0.8403298 0.07447832 0.50377417 0.47306395
0.27923048 0.60868585 0.39773956 0.78845817 0.7927593 0.79209304 0.6936052 1.008354
0.9362304 0.18998286 0.8477159 0.15510105 0.88471127 0.87281245 0.5653011 0.37570214
0.64316463 0.8260112 0.46296877 0.022933828 0.46249554 0.42374608 0.6049961 0.5345965

A_blocks.1.intro_bn.running_var f4 [32]
00000000: b00a fb3e d3b1 a53d eab5 553f b083 0c3f
00000010: f88e a03f 22c5 173d e781 403f f592 cc3f
00000020: cc2b 373f 681b 8d3e d27e 323f 85e6 c23f
00000030: 9b96 d13f 73e6 0b3f 9c5f c53e a070 3940
00000040: a568 1640 7871 f63d 3422 f53f 6377 c33d
00000050: 113d 1f3f 61d6 2140 bbd4 873e 3b30 433f
00000060: 1350 aa3f d69e 0c40 5b31 3c3e e17f 4f3d
00000070: a774 1b3f 0c64 283f 26c8 3c3f ae79 673f
0.4903159 0.08090558 0.83480704 0.5488844 1.2543631 0.037053235 0.75198215 1.5982348
0.71551204 0.27559972 0.6972476 1.5226599 1.6374086 0.5464851 0.38549507 2.897499
2.350137 0.12033361 1.9151063 0.095442556 0.62202555 2.5287097 0.26529488 0.7624547
1.3305687 2.1971946 0.18378203 0.050659064 0.6072487 0.6577766 0.737429 0.90420043

A_blocks.1.C11.weight f4 [32, 32, 5]
00000000: 2ae3 a7bd 33c6 16bd e8bc 84bd 2fce b3bc
00000010: 9d91 efbc f203 30bd bc50 163d e2ec b2bc
00000020: fc24 7b3d 4e2e c93c f11e 72bc a9cf 91bd
00000030: 0651 803d 314f 96bc c4d2 59bd 4fd5 873c
00000040: 68ce 883d 980e a0bc 6c03 8a3d bc1d 5e3d
00000050: 6fa0 7639 fafe 393d 752f f03c 1ee9 25bd
00000060: f1f5 02bd bf3e 80bd 721f 493b 32ab 423d
00000070: 8c8d 8abd 8882 a4bd 26ca 783c 9a0f 10bc
00000080: 617d c5bb d8bf b03c abf2 983c aa3e a9bd
00000090: e44b 5a3d 19dd 8abb 7df6 6fbd 0186 adbd
000000a0: 2e02 a1bc f185 513d f693 b6bd bcc8 a2bd
000000b0: 679b a5bd c68d 943c 37c1 1d3d e356 12bd
000000c0: 23c6 a73d e687 003c d035 86bd 407b f33c
000000d0: d243 88bd 9b46 6ebd c56d 103d 2ad6 5f3d
000000e0: 4502 69bd f995 12ba 01a0 37bd c28a 703c
000000f0: c43c 503d 65d9 05bd 0405 163b be8e 6c3a
00000100: 1af4 0ebd dc88 ad3d 92f5 96bc ff29 a43d
00000110: c33a 1a3d d941 b53c 2900 613d 8bd2 27bd
00000120: f75f ad3d c3ad 6f3d 6d7f 49bd 748d 72bd
00000130: 65c8 8abd dd61 84bb a352 8dbd 9860 23bd
00000140: 20bb 7fbd 5c69 67bd 6fdd fa3a b0b9 163d
00000150: cae5 4cbd d5fd 08bd 63b8 513d 44cb 353d
00000160: e71a 9bbd 26f9 713d da8f c83c 3836 5dbd
00000170: 6b56 9f3c a71e a9bd ed12 4fbd b831 823d
00000180: 2317 953c f4a4 743b d6c8 06bd 6a68 7c3b
00000190: c55f 97bd 050a a33d 805d fb3b df75 52bd
000001a0: bf2c 00bd 97f3 0ebd ab8c 5b3d b446 733d
000001b0: ebc3 4a3d c00d 1f3d dc86 603d 580d 933c
000001c0: dbbf 173d 84d9 febc 38b0 853c 7268 eb3b
000001d0: 9ab9 98bd 92cb a8bc b512 233d 1576 4fbc
000001e0: 18e5 f73c d378 f83c b594 a03d 2df3 9c3c
000001f0: dabc 7abd 4c27 a3bd d2dd 80bd 4526 b8bc
00000200: ef62 92bd ebb4 82ba c585 21bd 784a 04bd
00000210: 5281 1bbd dddd e83c 5bbe 3d3b acd7 95bd
00000220: fb1f 0b3d d0e1 79bb 356b 45bd a912 6bbd
00000230: 82e8 66bc d61a 3a3d dbff 923c 4904 73bd
00000240: a481 363d c8a7 313d fdd6 813d 49a2 b6bd
00000250: b441 96bd 4a78 55bc 6f04 513d 491b 8bbd
00000260: 554a 60bd bd18 abbd fa95 7f3d a4ae f7bc
00000270: 6dce 12bd 9832 5abd 3043 7fbd 3c9d 223d
00000280: c776 9dbd 67fd 543d b867 7cbc f56e f2bc
00000290: a681 f1bc 46a2 82bd 2133 bfbd 053d 34bd
000002a0: 6702 bdbc 06a8 b63c 9090 8ebd 42fa bbbc
000002b0: 3ecc fabc c841 b43d a620 483d 13c5 8e3d
000002c0: c6ab ecbb 4832 3e3d a89a 1f3d ad7b fe3c
000002d0: 6bb5 973d fd91 503d 1b76 03bd 47ed 63bc
000002e0: 3874 49ba 76a6 42bd d81b c43c b4f2 3ebd
000002f0: 1bc0 56bc dc72 08bc d452 1a3d 89e0 af3c
00000300: 51c5 b43d 3282 113d aac5 3ebd 77e5 18bd
00000310: 78d4 e73c 4d2b 0cbc 5a6c 38bd 6ba7 933d
00000320: 337b a7bd ec51 8fbd 2680 633d 81c3 673d
00000330: 1a6a a53c e0d7 b3bd b5ad 0b3d de84 233b
00000340: 69ac 86bb 723b 553c 1a73 7abc 2e28 75bd
00000350: bdb5 6e3d 8755 4f3d 74d6 f3bc 910f 043d
00000360: 6019 513d 332f 86bb 368f 733d 7e6e 813d
00000370: b7cb 9c3c 7c54 a23d deee 333d f41e f9bc
00000380: ef24 943d fbb2 9fbd 4d37 723c 1b7a 79bd
00000390: 1fc7 7e3c c4a1 1bbd 433f 3dbd 6f22 9b3c
000003a0: d751 40b9 5cd1 f83c 6840 973d e672 99bd
000003b0: a64b 713d 848f 43bd 1b65 8f3d 8703 413c
000003c0: a49e 48bd dbaa 8fbd f085 65bd 9c70 92bb
000003d0: 7fef 98bb 1e2b 993d 0ecb ea39 035b 9f3d
000003e0: e6c7 153d a778 0abd eae0 1a3d 503d 6f3d
000003f0: 47da 113d 27d3 7d3d 21a6 953d c324 2dbd
-0.08197625 -0.03681011 -0.064813435 -0.021948902 -0.029244239 -0.042972513 0.036698088 -0.02184147
0.061314568 0.024558213 -0.014777885 -0.07119686 0.06265454 -0.018348308 -0.053179517 0.016581206
0.06679994 -0.019538209 0.06738934 0.054227576 0.00023520154 0.04540918 0.029319504 -0.04050552
-0.03197283 -0.06261968 0.003068891 0.047526546 -0.06765279 -0.08032709 0.015184915 -0.008792782
-0.006026909 0.021575853 0.0186704 -0.08263905 0.05329503 -0.0042377827 -0.05858468 -0.08472825
-0.01965436 0.051153127 -0.0891494 -0.07948443 -0.08086281 0.01813401 0.038514342 -0.035727393
0.081920885 0.007844901 -0.06553233 0.029721856 -0.06653561 -0.058172803 0.035260934 0.054647602
-0.05688693 -0.00055918057 -0.044830326 0.01468152 0.0508392 -0.032678027 0.0022891173 0.0009023956
-0.034900762 0.084733695 -0.018427644 0.080158226 0.037653696 0.022126125 0.054931793 -0.040972274
0.084655695 0.05851532 -0.04919379 -0.05921693 -0.067765035 -0.0040399865 -0.06900527 -0.03988704
-0.062434316 -0.056496963 0.0019139479 0.03679818 -0.05002383 -0.033445198 0.051201236 0.044383302
-0.075734906 0.059075497 0.024482656 -0.054006785 0.019450387 -0.082577996 -0.05055516 0.06357139
0.018199509 0.0037329765 -0.032906376 0.0038514384 -0.073913135 0.079608954 0.007671058 -0.051381942
-0.031292673 -0.034900274 0.05360095 0.0593936 0.04950325 0.038831472 0.054816112 0.017950699
0.037048202 -0.031109579 0.01631938 0.0071840817 -0.07457276 -0.020604882 0.039812762 -0.01266243
0.030260608 0.030331051 0.078408636 0.019158924 -0.06121526 -0.0796648 -0.06292309 -0.022479186
-0.07147776 -0.0009972131 -0.039434213 -0.03229758 -0.037965126 0.028426105 0.0028952572 -0.07316527
0.033966046 -0.003812898 -0.048197944 -0.057390843 -0.01409352 0.04543575 0.017944267 -0.05933026
0.04455723 0.0433729 0.06339834 -0.08917672 -0.073367506 -0.013029167 0.05102962 -0.067923136
-0.05475839 -0.08354328 0.06239889 -0.030234642 -0.035841394 -0.053270906 -0.062319934 0.03970073
-0.076886706 0.051999476 -0.015405588 -0.029593924 -0.029480767 -0.063786075 -0.09335924 -0.044003505
-0.023072435 0.022296917 -0.06961167 -0.02294648 -0.030614968 0.08801609 0.04885926 0.06971183
-0.0072226254 0.04643467 0.03896585 0.031064833 0.074076496 0.050920475 -0.032095056 -0.013911552
-0.00076848594 -0.04752203 0.023939058 -0.04661818 -0.013107325 -0.008328166 0.037676647 0.021469371
0.088266976 0.035524555 -0.046575226 -0.03732821 0.028299555 -0.008555246 -0.045025207 0.07209667
-0.08177795 -0.06998047 0.055542134 0.05658293 0.020192195 -0.08781409 0.034101207 0.0024951021
-0.0041099084 0.013014661 -0.015286231 -0.05985277 0.058278788 0.050618675 -0.029765345 0.032241408
0.05104959 -0.004094982 0.05946275 0.06319903 0.019140108 0.0792627 0.043928973 -0.030410267
0.07233607 -0.0779781 0.014783693 -0.060907464 0.015550404 -0.03799607 -0.04620291 0.018937318
-0.00018341035 0.030373268 0.073853314 -0.07492618 0.058910035 -0.04774429 0.07001706 0.011780626
-0.048979416 -0.0701501 -0.056035936 -0.0044689905 -0.004667222 0.07478927 0.00044783246 0.07781031
0.03656759 -0.03380647 0.03781215 0.05840808 0.035608556 0.06196895 0.07307077 -0.042271387

A_blocks.1.C11.bias f4 [32]
00000000: 9d13 97bd 3513 f33b ca2e 8abc 848a babc
00000010: 7c19 8f3d 9923 93bc 82d2 45bd 8336 c43c
00000020: 984d a7bd 6270 f53c 0d32 23bd 7e06 473b
00000030: f4f3 ef3c ed39 80bd 5e21 15bd 0034 7a3d
00000040: f72f 1a3d 9d11 a8bd 381d 36bd 7871 f9bc
00000050: 1b1b a53d 807f 7c3d d5d5 ab3d 0e6e 96bd
00000060: 83cd 93bc 7346 8cbc c571 93bc 0e6e c4bc
00000070: b191 513d 911c 4a3d bd67 5fbd 2f70 973d
-0.07376788 0.007418061 -0.016868014 -0.022771128 0.06987283 -0.01796131 -0.04829646 0.023951774
-0.08169097 0.029960815 -0.039842654 0.003036886 0.02929113 -0.062610485 -0.036408775 0.061084747
0.0376434 -0.082064845 -0.04446146 -0.030449614 0.080618106 0.06164503 0.083903946 -0.0734521
-0.018042332 -0.017123437 -0.017998585 -0.02397826 0.051164333 0.04934365 -0.054542292 0.07394444

A_blocks.1.C12.weight f4 [32, 32, 5]
00000000: 1c3e 8dbd 8ee7 013d 68bb 7a3d f77a 523d
00000010: b7f4 9abd f425 1d3c 4a42 f9ba 7f6a 753d
00000020: 7f83 aa3d ed22 18bd 9e87 5c3d 9549 ae3d
00000030: 2258 b1bb 5cd6 153c 7e1a 9b3c 99d6 85bd
00000040: ae18 69bc 5375 873d 4f68 edbc be13 4fbd
00000050: 13e4 813d ffee 29bd e413 76bd 5f31 a53c
00000060: 7aef fabc 346d 7bbd f975 b33c f3d9 d13c
00000070: 29e8 d8bb c7ad a23d 7b08 16bd 81e8 613d
00000080: d0ef abbd cf41 40bd 0492 e4bc 23e6 cfbc
00000090: 6980 823d 6c7c 95bd 9f3c bc3c 70e3 2f3d
000000a0: 8ef1 53bd ff93 8fbd 2ce1 293c e368 33bd
000000b0: d98e a8bd 16e4 853d fd20 da3c 437b 93bd
000000c0: 92c1 82bd 45bc d63c 812f c3ba b0fe 0dbc
000000d0: 077a b1bb 8524 203d 4e38 923d 3239 99bc
000000e0: 1033 47ba 82e7 493d 2fff e7bc b7bc 71bd
000000f0: 38bf dc3c dcc3 af3c 5eb1 3d3d 6663 d3bb
00000100: 1711 43bd 2b1b 8fbd 28c1 8ebd ea60 04bd
00000110: 3de3 05bc 9672 683d 2132 4b3d fbc4 483d
00000120: 504a 073c 337e a53c 485a 53bc 89e9 65bd
00000130: 94c4 393d d7ca aa3d cc48 2e3d f75f 0f3d
00000140: 591f 2bbd d8e8 0ebc d189 8f3c 2811 93bd
00000150: 0c72 153a 07fc 793d 37f5 493c 003d 913d
00000160: 2b75 a9bc cd59 9bbd d1ce 8e3d 7d73 d73c
00000170: 8b12 b6bc 4926 22bc 66ca 4c3d 8d4f e83b
00000180: a7e5 993c 9c0b f43c 739c cabc 6878 863d
00000190: 859f 9c3c a662 1dbc 6af6 95bd 9922 00bd
000001a0: 96bf 85bd c4cc 2cbd 136b 77bc 0b95 30bd
000001b0: dd05 053b e397 98bd c3c8 d03c ddee 373d
000001c0: 718f 7bbc 333e 9fbd a827 8f3c 31d7 7b3d
000001d0: 43d0 afbd 6964 8d3d 8283 bd39 49ba 803d
000001e0: 07f8 39ba 6999 3c3c d8e9 633d 8b64 89bd
000001f0: 6417 27bd ae2b 5b3d cf86 713d efbd 353d
00000200: c3d9 0c3d ae1d 95bd ac16 ad3c 1e7c b33c
00000210: 8161 02bd 73af ccbc 8267 79bd d994 7e3d
00000220: 00f4 e83c bcb3 9cbd fc21 df3c 1d7a 093d
00000230: 548d 723c e593 3a3d 280d e13c e284 51bd
00000240: 669a 92bb 8d5e 85bd f9ea 61bd 2fbe b5bc
00000250: 2eb0 6dbd 094c 973d af1e ad3c 7031 843d
00000260: 1bce ed3b 12f8 a73d c2fe 1dbd e9c4 21bd
00000270: 1849 953d b718 5ebd 1c35 e03c 0309 713c
00000280: a187 853d 384e 5c3c cf3b 1fbb d6ac e8bb
00000290: 7e68 ff3c 0acb 87bc 6552 a23d 98fc 21bd
000002a0: 79de 7b3d 6e22 cb3c f7b0 063d 2f08 60bd
000002b0: 3d41 a3bd be83 99bb 218a 833d 6187 743c
000002c0: 33ee 5bbd 4fe7 ac3c d4e5 5f3d 600d 8e3a
000002d0: d042 1c3d 9ed6 4d3d 1c7a 7a3d d95a bdb8
000002e0: 2002 8c3c 229e 07bd 4f65 dc3c 5ad3 f2bc
000002f0: 7601 a83c 6240 793a d412 8abd 8618 91bc
00000300: aa52 6a3d a95f 52bc 73bc a93d 6c9a 82bd
00000310: 6e70 a3bd 9ab7 293d 3d4a 1bbd 4fa3 42bd
00000320: 096a c0bb 6c44 b43d aa22 4d3c a225 58bd
00000330: e811 1cbd a326 9cbd 26a3 2ebd baae 7c3c
00000340: 44b8 6f3c f81d aebd ba09 a3bb 6680 f1bc
00000350: 6742 1a3d 01e3 4b3c 7096 8bbc 3c18 6f3b
00000360: bc15 66bd 747b 60bd b346 d73b 63c6 3ebd
00000370: 1a30 30bd 0834 84bd d068 fbbc 703e 1fbc
00000380: 70d4 fabc 8bef 063d 39dd b73d 3a54 8e3c
00000390: 6a14 ed3c 2968 583d 7bb8 3b3d 4e89 babc
000003a0: 880b 383d 279e bdbc d6a3 29bc b8df 9a3c
000003b0: 710e 4e3d 75be aabb 2c52 7dbd 96ee 353c
000003c0: 444c 48bd 4288 44bd 8eca a93c c86f b33d
000003d0: 9e6e 2c3d f1c9 80bd 7be7 96bd 19a3 2d3d
000003e0: 4118 243d bd94 abbd 01a8 b2bd 49c8 69bd
000003f0: 6895 04bd a5c9 1fbd edcf 26bd 91be 3dbd
-0.06896612 0.03171497 0.06121388 0.0513868 -0.07566207 0.009591568 -0.0019016948 0.059916016
0.08325862 -0.037142683 0.053840272 0.085101284 -0.0054121176 0.009145346 0.01893353 -0.06535072
-0.0142270755 0.06614175 -0.028980402 -0.050555937 0.0634233 -0.04148769 -0.060077563 0.020165144
-0.03063177 -0.06138344 0.02190684 0.025616622 -0.0066194725 0.07943302 -0.03662918 0.055153374
-0.0839535 -0.04693776 -0.027901657 -0.025378292 0.063721485 -0.07299122 0.022978125 0.04294151
-0.051744036 -0.0701065 0.010368627 -0.0438012 -0.08230371 0.065376446 0.026627058 -0.07201245
-0.06384577 0.02621282 -0.0014891477 -0.008666679 -0.005416158 0.039097328 0.071396455 -0.01870403
-0.00075988565 0.04929305 -0.028319923 -0.059017863 0.026946649 0.021455698 0.04631173 -0.006451058
-0.04762372 -0.06987604 -0.069704354 -0.032318987 -0.008171854 0.056749903 0.049608354 0.04901598
0.008257464 0.020201778 -0.012899943 -0.05613092 0.045353487 0.0833947 0.042549893 0.03500363
-0.041777942 -0.008722506 0.01752177 -0.07181007 0.0005700893 0.061031368 0.01232653 0.07091713
-0.020685753 -0.075854875 0.06973041 0.026300186 -0.022225639 -0.009896823 0.04999771 0.0070895613
0.018786265 0.029790692 -0.024732804 0.065659344 0.019119034 -0.009606039 -0.073223904 -0.031282995
-0.06530683 -0.042187467 -0.015101212 -0.04311089 0.0020297684 -0.07450845 0.025486356 0.044905532
-0.015354023 -0.077755354 0.017474964 0.06148452 -0.08584645 0.06903917 0.0003614687 0.06285531
-0.0007094149 0.011511185 0.055642933 -0.0670863 -0.04079379 0.053508453 0.058966454 0.044370588
0.03438736 -0.072810516 0.021128975 0.02190977 -0.03183127 -0.024986004 -0.06088973 0.06215367
0.02843666 -0.07651469 0.027237885 0.033563722 0.014804203 0.0455512 0.027472094 -0.051152118
-0.004473972 -0.06512175 -0.055155728 -0.022185413 -0.058029346 0.073875494 0.021132795 0.06454742
0.0072572357 0.082016125 -0.038573034 -0.03949443 0.07289332 -0.05422279 0.027369075 0.014711621
0.0652001 0.013446383 -0.0024297123 -0.007100682 0.031177755 -0.016576309 0.07925872 -0.039547533
0.061491463 0.02479669 0.03288361 -0.054695304 -0.079714276 -0.0046848943 0.064228304 0.014924855
-0.05369396 0.02110639 0.05466254 0.0010837726 0.038149655 0.050253503 0.06115161 -9.029144e-05
0.017090857 -0.03310979 0.026903776 -0.029641796 0.02050851 0.000950819 -0.067418724 -0.017711889
0.05720774 -0.01284019 0.08287897 -0.0637711 -0.07980429 0.04143486 -0.037912596 -0.047519024
-0.0058720154 0.08802113 0.012520472 -0.052770264 -0.038103014 -0.07624557 -0.04263606 0.015422517
0.014631335 -0.0850181 -0.0049755247 -0.02948017 0.037660982 0.012444259 -0.017039508 0.003648295
-0.05617307 -0.054805234 0.0065697073 -0.046575915 -0.043014623 -0.06455237 -0.030689627 -0.009719476
-0.030618876 0.03294329 0.08977742 0.017374147 0.028940398 0.05283371 0.04583023 -0.02277055
0.044932872 -0.023146702 -0.010354003 0.018905506 0.05030674 -0.0052106925 -0.061845943 0.011104247
-0.048900858 -0.047981508 0.020726468 0.08761555 0.04209768 -0.06288517 -0.0736837 0.04239187
0.040062193 -0.08377979 -0.087234505 -0.057075772 -0.032369047 -0.039010663 -0.040725637 -0.046324316

A_blocks.1.C12.bias f4 [32]
00000000: ea0b 423c 74a0 143d 9d15 86bc 7dc8 5b3d
00000010: 1e3d 94bc b0e2 663b 5b49 c8bc 3cb0 3cbd
00000020: 280a 4dbd b671 6b3c 2651 3fbd cb0e fbbb
00000030: 3c41 babc 6c0b 963b 332d 663b edaf 493d
00000040: 1a93 46bd ee9a 81bd 9ed0 763d f1df 8d3d
00000050: de13 433b 1a6a 6c3d bbe0 503d a19e 80bc
00000060: 2a19 683d fe9a bcbb 755e b03d 85bf 9fbc
00000070: 3ded c73d afc3 993d 953e 503b bd89 d1b8
0.011843661 0.036285833 -0.016367728 0.053657997 -0.01809555 0.003523033 -0.024449041 -0.046066508
-0.050058514 0.0143703725 -0.04670825 -0.0076616756 -0.022736184 0.0045789983 0.0035122156 0.04924004
-0.04848013 -0.063283786 0.060257547 0.06927479 0.002976648 0.057718374 0.05099557 -0.01570064
0.056664623 -0.005755781 0.08611766 -0.019500503 0.097620465 0.07508027 0.0031775583 -9.991552e-05

A_blocks.2.intro_bn.weight f4 [32]
00000000: f00a 823f b939 803f 6236 823f 0d9b 7f3f
00000010: c577 803f e6d2 823f f35d 813f cf46 803f
00000020: 5abf 7d3f 3e49 7b3f c276 7e3f 5b06 7d3f
00000030: d9da 803f 83b2 803f bb08 7e3f bf9b 803f
00000040: 8a9e 7d3f 2655 803f 6d0e 823f 716c 7b3f
00000050: 9875 813f 6cd4 783f 9cfc 803f 51ae 813f
00000060: e6cd 803f d2ff 7e3f 4d38 7c3f 5d42 7c3f
00000070: d493 7d3f ae0b 833f 481b 7a3f a2c6 7c3f
1.0159588 1.0017616 1.0172846 0.99845964 1.0036551 1.0220611 1.0106796 1.0021609
0.99120104 0.98158634 0.9939996 0.9883782 1.0066787 1.0054477 0.9923207 1.004753
0.99070036 1.0025985 1.0160652 0.98212343 1.0114012 0.9719913 1.007709 1.0131322
1.0062835 0.996091 0.9852341 0.9853876 0.9905369 1.0237939 0.9769788 0.9874059

A_blocks.2.intro_bn.bias f4 [32]
00000000: 7f99 0b3c 4b79 a3bb 5c75 c43c bf28 07bc
00000010: 4dc5 6b3c b166 9d3b e57e f13c fb08 edb9
00000020: 37a5 2bbc 22bd ce3c abaf 5cbb 7eee f33c
00000030: ff94 103d 9d38 753c bc20 db39 bc76 873c
00000040: 1f19 98bb 89f4 193c 280a ee3c 0d13 113b
00000050: 6d77 65bc 7302 623c 34f4 4cbc b7da 5a3a
00000060: 282c ed3c e78d 353c 1354 a83c d706 5b3b
00000070: 6657 c13c 0f48 aa3c 23b1 083c 6b62 413c
0.008520483 -0.0049888245 0.023981743 -0.008249461 0.014390302 0.0048035015 0.029479453 -0.00045210854
-0.010476402 0.02523667 -0.0033674042 0.029776808 0.035298344 0.014967111 0.00041795324 0.01653611
-0.0046416665 0.009396681 0.029057577 0.00221366 -0.014005524 0.013794529 -0.012509394 0.0008348631
0.02895172 0.011081195 0.020547902 0.0033420825 0.023601245 0.020786313 0.008343014 0.01180325

A_blocks.2.intro_bn.running_mean f4 [32]
00000000: 9732 5d3f 46e4 193f 8cdd 853f 19c7 633f
00000010: 58c5 6d3f 8607 823e 6cd9 1a3f d8c4 853f
00000020: 76ef 4b3f f940 6b3f d7c6 1d3f b5d3 5a3f
00000030: cd37 713f e5c3 263f 9aae 273f 4e97 963f
00000040: fbb6 713f 2fff df3e 09d5 1c3f 2725 3c3f
00000050: d7e8 2d3f 183e 9a3f 286e 003f ca2d 883f
00000060: a349 b73f 7d6a 0d3f 22ed 093f fe96 543e
00000070: e859 633f ac8e 913f ad46 863f c1a3 3f3f
0.8640532 0.6011394 1.0458236 0.88975674 0.9287925 0.25396365 0.6048801 1.0450697
0.79662263 0.91896015 0.6163153 0.8547929 0.9422577 0.6514266 0.65500796 1.1764925
0.9441983 0.43749377 0.61262566 0.7349419 0.6793341 1.20502 0.50168085 1.0638974
1.4319347 0.55240613 0.5387746 0.20760724 0.8880906 1.1371665 1.0490319 0.74859244

A_blocks.2.intro_bn.running_var f4 [32]
00000000: 5580 0c40 65a5 943f 326a 5340 0404 173f
00000010: b69c 4140 e4e3 743f 7196 a13f 36c9 3340
00000020: 69e2 8540 c46b 6540 63bb 3640 2cd0 1040
00000030: b146 1a40 f7e3 ef3e 4a33 c73e 28da 6c40
00000040: 2461 2040 08db 743f a8c2 723f b0f7 f73f
00000050: dc66 013f b31c 9540 cde8 833e 1060 8e40
00000060: 92b8 b340 998c b03f 02ae b63e 737d fb3f
00000070: 75c8 0e40 6e97 8440 606c 2940 2c2d df3f
2.1953328 1.1612974 3.3033566 0.589905 3.0251899 0.95660233 1.2624036 2.809156
4.183888 3.5847025 2.8551872 2.2627058 2.4105647 0.4685361 0.38906318 3.7008152
2.505929 0.95646715 0.9482827 1.9372463 0.50547576 4.6597533 0.2576355 4.4492264
5.6162806 1.3792907 0.35679632 1.9647659 2.230985 4.143485 2.6472397 1.743566

A_blocks.2.C11.weight f4 [32, 32, 5]
00000000: c90f dfbc e5be 40bc 029b 9abc 528f 873d
00000010: 33e8 8e3d 03b2 40bd c3be 283d e45b d63c
00000020: 89dd 3cbc 6e82 7f3d 47f1 2cbd 3b54 753c
00000030: ac7f 1dbd ebe8 843d 75f2 063c f770 a5bd
00000040: c6c8 ad3c ea39 2b3d 8209 0e3d 287e 42bd
00000050: 19a0 0f3d df58 edbc 7593 63bd 7b6f 5f3d
00000060: fca3 793d f6ff 67bd a050 ef3c 0d30 9d3c
00000070: abcd 153b 2d3e 983d f1c1 403d f5e6 a1bd
00000080: 479f 2abc 9ff8 3dbc 5dbd 9c3c caa9 70bd
00000090: 6b82 753d ef0a a9bc d455 203d 5b99 703c
000000a0: 2fe7 5cbd 962d d0bc e145 debc 3cd0 33bd
000000b0: f39a b1bc 5bf0 083d 8089 7bbc bd64 fe3c
000000c0: 3c12 a83d 09ad 9b3d 2dde 90bd e040 473d
000000d0: 8a7b a1bd 7935 85bc 16b7 e0bc 9fa7 103c
000000e0: ce8e 28bd 2ea1 84bd 42f8 15bd 4c79 06bd
000000f0: 79c3 cfbc bb96 3a3d 2109 683c 0b61 89bc
00000100: 812c 923d 92e7 b4bc 5e15 813d 968f 303d
00000110: de42 52bd 03b6 5cbc 5646 46bd 0d9f d2bc
00000120: 9e2b a13c 6f47 71bd 43b0 3f3c f633 6ebd
00000130: 73ea 633c 7ac3 403d 8fbe f2bc a1c1 493d
00000140: e7ea 52bc b205 8fbd db22 acbd 2e83 443c
00000150: 6dbf aa3b d2bb 8cbd 35e9 fa3c 68c0 9c3b
00000160: 33a7 dbb8 90d9 d73c a944 413b 0b44 893d
00000170: 4fb0 973d 583e 273d 37be 9d3d 2689 df3c
00000180: 8c40 a43c 5f83 563d bc75 8dbd a7d1 bf3d
00000190: ff88 bebc 54cb 123d cd08 823c 56de 463d
000001a0: 057a 583d 9191 55bd f187 503d efa8 d6bc
000001b0: 2361 dfbc 5b82 61bd fb1e 533d 8d9d 2f3d
000001c0: e8ab 8ebc 4b49 8bbd 0988 903d 8b83 fbbc
000001d0: e5f6 423d ea99 b63c 3063 8b3d 7ca6 2bbd
000001e0: 495c 76bb 693e 453d c366 f9bc 07ec 39bd
000001f0: 0275 573c 4d60 5f3c 8c3a 75bc 8682 acbd
00000200: 0cd7 aa3d db01 a73d 95b6 7d3d fad4 babc
00000210: 72bc 753d d275 ee3b 60dd 76bb a981 75ba
00000220: 7455 023d 98b5 72bd 8649 a6bd 385b 803b
00000230: 227b 5a3d d60b 49bd 4050 d23a 0a54 433c
00000240: 3273 34bc db17 3d3d 0858 8abc 8fe8 7e3c
00000250: 363e c33b f113 463d 96a2 a03a c464 573d
00000260: d943 88bd 37af 5ebd 917d 9bbc c8e5 83bd
00000270: 219f 143c 6986 303d 8585 973c 4691 6f3d
00000280: b6a7 89ba 69e5 94ba 8a52 35bd 2f81 ce3c
00000290: 5853 11ba 60d8 44bd 0914 433d a99f 0dbd
000002a0: d85e a0bc 20c2 c0bc 6b85 8b3c 4853 823d
000002b0: b665 a2bc b555 7fbd dafd 31bd 7ccf 12bc
000002c0: 5e64 43bd a823 f2bc 2718 a9bc 773d 9c3d
000002d0: a992 7b3c bc85 873d 81e2 e6bc 2cfc 9e3c
000002e0: f01c 1fbc bb3e 8e3d dffa 043d 1779 a0bd
000002f0: 4201 123d 1833 56bd 050f 0e3d f32a 2cbd
00000300: 945b 3abd 5c78 89bc 53c7 623d c5d5 1a3d
00000310: 22f1 963d 9ee8 56bd b3f9 98bd a98b 0c3c
00000320: e58e 163c 7047 d8bc acdf 113b da45 343d
00000330: 1dc7 8ebd 1c9c 2b3b 1b16 85bc 2319 593c
00000340: e997 0d3c b339 093d 48b8 613c 4e9c f9bc
00000350: c6d1 08bd 9bb5 aabd 2e10 6a3d 18e1 143d
00000360: b77b b93c 085a abbd 6795 7c3d ab27 cd3c
00000370: fb84 663b 642f 74bc f67a 83bd 90b7 7d3d
00000380: 0bf9 33bd bbc4 a0bd 60f9 8a3c 06a6 a03d
00000390: e4d8 033c 7854 33bd 3d82 1f3c 181b 1cbd
000003a0: 13cf b0bd f293 4cbc e45e a23d e292 42bd
000003b0: f404 2bbd 6116 f03c 312c 22bc 467f 7e3d
000003c0: 17a8 433d 8bc6 70bd d1ec 8dbd d015 b9bc
000003d0: deb1 233b efaf bbbc 2d2e 49bd 2cad e3bc
000003e0: a109 78bd 10d2 27bd 0019 fdbb ff3c b0bd
000003f0: 8266 0ebd f1d6 1ebd 6838 52bd 8530 bcbc
-0.027229207 -0.011764263 -0.018872742 0.06619133 0.06977882 -0.047044765 0.04119755 0.026166864
-0.0115274275 0.062380247 -0.042222288 0.014973695 -0.038451836 0.06489738 0.008236517 -0.08078187
0.0212139 0.041803278 0.034677036 -0.047483593 0.03506479 -0.028973041 -0.055560548 0.054549675
0.060947403 -0.056640588 0.02921325 0.019187951 0.0022858183 0.07433734 0.047059957 -0.0790538
-0.010413951 -0.01159492 0.019133264 -0.058755673 0.05993883 -0.020635096 0.039144352 0.014685
-0.05393141 -0.025412362 -0.02713293 -0.04389976 -0.02168033 0.033432346 -0.015352607 0.031053895
0.08206603 0.07601363 -0.07073627 0.048645854 -0.07884891 -0.01626085 -0.027431052 0.0088290265
-0.041151814 -0.06476055 -0.03661371 -0.03283052 -0.025361763 0.045553904 0.014162333 -0.016769907
0.07137395 -0.022083078 0.063029036 0.043105684 -0.0513333 -0.013471129 -0.04840692 -0.025710607
0.019674119 -0.058906015 0.011699739 -0.058155023 0.0139108775 0.04706142 -0.029631881 0.049256925
-0.012873388 -0.06983508 -0.08405086 0.011994166 0.005210808 -0.068717614 0.03062878 0.004783679
-0.00010473877 0.02634886 0.0029490388 0.06702431 0.07406675 0.04083094 0.07702296 0.027287077
0.02005031 0.05237138 -0.06907222 0.0936616 -0.023258684 0.03583844 0.015873337 0.04855188
0.052850742 -0.052140776 0.050910894 -0.0262036 -0.027267998 -0.055055957 0.051543217 0.04287486
-0.017415956 -0.06801089 0.07057197 -0.030702373 0.04759874 0.022290189 0.06806028 -0.04190682
-0.0037591627 0.048155222 -0.030444508 -0.04539111 0.013150455 0.0136338 -0.014967572 -0.08423333
0.08341798 0.08154651 0.061941702 -0.022806633 0.05999417 0.007277229 -0.003766857 -0.0009365329
0.031819776 -0.059255213 -0.08119492 0.003917124 0.053340085 -0.049083553 0.0016045645 0.011921892
-0.011013793 0.04616533 -0.01688768 0.015558376 0.005958344 0.04835886 0.0012255486 0.052586332
-0.06653566 -0.054366317 -0.018980773 -0.06440312 0.009071142 0.043096934 0.018496284 0.058488153
-0.0010502252 -0.0011359873 -0.04426817 0.025208084 -0.000554373 -0.048057914 0.04762653 -0.034576092
-0.019576475 -0.023530066 0.017031392 0.06363541 -0.01982389 -0.062337596 -0.043454982 -0.008960601
-0.04770314 -0.029558018 -0.0206414 0.07628911 0.015354791 0.06617305 -0.028184177 0.019407354
-0.009711489 0.06945559 0.03246581 -0.07835596 0.03564573 -0.05229482 0.034682292 -0.042033147
-0.045497492 -0.016781025 0.05536587 0.037801523 0.07370211 -0.052467935 -0.07469501 0.008578219
0.009189342 -0.026401252 0.0022258563 0.04401193 -0.069715716 0.0026185578 -0.016245892 0.013250622
0.008642175 0.033502292 0.013776846 -0.03047004 -0.03340318 -0.0833542 0.057144336 0.03634748
0.022642 -0.083667815 0.06166592 0.02504333 0.0035174477 -0.014903877 -0.06419937 0.061942637
-0.043938678 -0.07850023 0.016964614 0.078441665 0.008047316 -0.043781728 0.009735641 -0.038111776
-0.08633246 -0.012486445 0.07928255 -0.04750336 -0.04175277 0.029307546 -0.009898231 0.062133096
0.047767725 -0.058783095 -0.06929935 -0.022593409 0.0024977843 -0.02291104 -0.049116302 -0.027792536
-0.060556058 -0.040971816 -0.0077239275 -0.08605384 -0.034765728 -0.038779203 -0.051323324 -0.022972355

A_blocks.2.C11.bias f4 [32]
00000000: 2fce b63d 43b9 4f3d 37ce 813d 8ca1 a23c
00000010: 4a17 ab3b 1bfc 343d d167 84bd 1afa 223d
00000020: 1e68 743d 5728 2bbd b5af 113d b01e 93bd
00000030: 8486 0d3d aded 64bd ffa8 64bd 1c7d d8bc
00000040: 2945 753c c8f2 213d e98c 4ebd 09e8 d63c
00000050: 428d adbd 92a0 bb3c 955f 71bd e777 a83c
00000060: d79d 3ebd 23ff a5bd 1e80 9f3d 3800 febc
00000070: 9cae 6e3d 4d04 c5bc 8096 aa3d a5ed 583c
0.08926045 0.05071379 0.063381605 0.019852422 0.005221282 0.04418574 -0.06465114 0.039789297
0.059669606 -0.041786518 0.035567958 -0.071835876 0.034552112 -0.055890728 -0.05582523 -0.026426844
0.014970102 0.039538175 -0.05042735 0.02623369 -0.084742084 0.022903714 -0.058929045 0.020564986
-0.046537247 -0.08105304 0.07788108 -0.031005964 0.05827199 -0.024049902 0.08329487 0.013240253
